data/paper/bornagain_output/d22_20250913_1e13_intensityFactor0p1421_radius51_interferenceRange5_latticeParameter114.npz (npz, 503626 bytes, 5 tensors)

hist f8 [256, 128, 1]
8.835100007519784e-06 9.024879972579798e-06 9.1657781625791e-06 8.872665303403456e-06 9.243236112506928e-06 8.832057226896862e-06 8.750066994410981e-06 8.351210017406679e-06
7.950320101185204e-06 7.655860885548131e-06 6.943190986197571e-06 6.870945756170368e-06 6.569953726805096e-06 6.97844646472364e-06 6.880886735062527e-06 7.695183532782815e-06
7.5102475641842295e-06 8.474071660528247e-06 8.615305402440972e-06 8.828869260543302e-06 8.885156950758576e-06 8.47231261517377e-06 8.35443062454385e-06 7.78128541715462e-06
7.979622444290696e-06 7.874724738250325e-06 8.671633725606346e-06 1.0007849141379762e-05 1.1255592564520152e-05 1.2549904432258817e-05 1.3564858020382148e-05 1.3058385078089833e-05
1.2029303408859878e-05 1.0392744685454138e-05 7.119023046400256e-06 3.20749192189793e-06 2.2588057934057608e-07 6.607082270422244e-09 2.682354424833153e-08 6.96354222681302e-08
1.4864921108429213e-07 3.127422166848619e-07 6.10313295464504e-07 1.2788313744950302e-06 3.106030268329301e-06 1.0565150236874498e-05 7.358445010994353e-05 5.054852712936853e-05
1.3468260944773024e-05 1.427258164949893e-05 1.5137621385267252e-05 1.412386334592757e-05 1.3965646657683948e-05 1.2781789224619506e-05 1.1595619667835263e-05 1.0892508262760411e-05
9.330755248001e-06 9.14891335608878e-06 8.202510554092742e-06 8.37716403890978e-06 7.732147457397419e-06 7.964439724740817e-06 7.770034611338018e-06 8.270711195248401e-06
8.089463557840571e-06 8.53346296543135e-06 8.674702020231493e-06 8.550907836744183e-06 8.718219692676774e-06 8.915394436082327e-06 9.242139011604091e-06 9.049014722333012e-06
9.573181098028763e-06 9.303903476977201e-06 9.545711663488957e-06 9.241404191756122e-06 8.859633827573859e-06 8.349518249711548e-06 7.731701838625168e-06 7.408084521875083e-06
6.798077553312622e-06 6.3363604366712305e-06 5.708631843747835e-06 5.639255350478688e-06 5.066911899963763e-06 5.115946022305831e-06 4.786521483610459e-06 4.843883570779097e-06
4.888757212264142e-06 4.914472508319236e-06 5.242295556027875e-06 5.0926324088620966e-06 5.037138526332769e-06 5.080462386370228e-06 5.131399534843327e-06 4.753854598399019e-06
4.802707339001695e-06 4.358638871779287e-06 4.229463720562793e-06 3.938337683095634e-06 3.6780512057030576e-06 3.501977023763047e-06 3.233598572728897e-06 3.2680646468526585e-06
3.030303449660517e-06 3.15805806503595e-06 2.9757623910781176e-06 3.1176493095776977e-06 3.0519631270801784e-06 3.1604017886475478e-06 3.0938223908400234e-06 2.991548825707489e-06
2.9182434013373652e-06 2.755240525374588e-06 2.6183930042906477e-06 2.483516894031084e-06 2.34301667887553e-06 2.204554006502573e-06 2.1799673904320926e-06 2.0204214188300336e-06
2.0347547999289775e-06 1.979586636413941e-06 1.985014835517158e-06 2.037161819435456e-06 1.9702790875182504e-06 2.0049539437463383e-06 1.9506153484788627e-06 1.9090905472615407e-06
1.0332781999517028e-05 1.0503967296542941e-05 1.1005431580693806e-05 1.0285367487114478e-05 1.0510068066654627e-05 9.93990415030275e-06 9.909604055310013e-06 9.629161947692919e-06
8.777341202718305e-06 8.815591001174441e-06 7.995534662582109e-06 8.16965096098118e-06 7.953839854539253e-06 8.404922065411374e-06 8.431353317348344e-06 9.126448774641521e-06
9.64018712270428e-06 1.0409685114147604e-05 1.0776877833021102e-05 1.102700159580992e-05 1.1248049929221659e-05 1.070519479069636e-05 1.035072098794065e-05 9.776887770462111e-06
9.975476339395428e-06 9.931085172640977e-06 1.1453184904889535e-05 1.1825656104800102e-05 1.4558887488181254e-05 1.568610176614572e-05 1.688305907957921e-05 1.6855171342058597e-05
1.5460922094241353e-05 1.2874387047077603e-05 9.08052310678953e-06 4.084227612001878e-06 2.8511512491866774e-07 7.961349430353108e-09 3.195576953201957e-08 8.828255349262154e-08
1.8567962988375184e-07 3.732784983637699e-07 7.777913248332838e-07 1.619621703443178e-06 4.049331491987697e-06 1.3172606559983596e-05 9.687940874738817e-05 5.960080565871636e-05
1.779451609878577e-05 1.783322684637097e-05 1.9630632281059365e-05 1.8137529521617857e-05 1.7450452881806618e-05 1.6274636416912276e-05 1.468310295202577e-05 1.3772066141148662e-05
1.2195688554719222e-05 1.1098406335599231e-05 1.0352357977419116e-05 1.0083821645454502e-05 9.426837675871807e-06 9.781000872551551e-06 9.316193845721286e-06 9.665771597491085e-06
9.583549065234818e-06 9.679630414304331e-06 1.0083955140347814e-05 9.681311655879656e-06 1.029933866314064e-05 1.0081937215210635e-05 1.0697288756520493e-05 1.0764038107651324e-05
1.1366247899930334e-05 1.0837549013134106e-05 1.1381191847027532e-05 1.0638121338648604e-05 1.0624591921654983e-05 1.0170447636685771e-05 9.444297956437588e-06 8.97313622823181e-06
8.26581524265149e-06 7.690728034630299e-06 6.9223334328468575e-06 6.775149578662925e-06 6.057012447416577e-06 5.952832819695607e-06 5.833486679764402e-06 5.634677225924811e-06
5.7031853731049e-06 5.640666622940347e-06 5.875939227092355e-06 5.689057096956338e-06 6.0449358259786815e-06 5.7967419408703696e-06 6.041675337176412e-06 5.6271610428285516e-06
5.633679209658599e-06 5.232491551603017e-06 5.085229059644808e-06 4.698016112049213e-06 4.421719273653405e-06 4.258896838081223e-06 3.96132006653319e-06 3.803394449318983e-06
3.604763607002245e-06 3.6365695053458286e-06 3.6126378763255987e-06 3.637558776623431e-06 3.523045442292382e-06 3.6553036757011216e-06 3.565204085523242e-06 3.5393790630482706e-06
3.4832558565714653e-06 3.287629700716523e-06 3.1718008500163682e-06 2.9762458319583423e-06 2.9077111178960034e-06 2.598943634925337e-06 2.570367877181228e-06 2.4139746028516743e-06
2.450666321670187e-06 2.367644467281161e-06 2.3676687986263507e-06 2.3924179143582654e-06 2.3138166419128575e-06 2.380309685359372e-06 2.2661027344472886e-06 2.2479852497691043e-06
00000000: 594b 1be6 4e87 e23e cd25 030f 32ed e23e
00000010: 8e1a 5bf5 d638 e33e c261 74d5 799b e23e
00000020: a9f7 afb2 6c62 e33e 6aef c7b3 ac85 e23e
00000030: 0afe ee0c a859 e23e 90f8 a490 8583 e13e
00000040: 0359 aaac 4bac e03e b8b5 0e82 350e e03e
00000050: 68ce 48ce 311f dd3e e2af 2c30 9fd1 dc3e
00000060: f985 0f21 6f8e db3e 0b9e 08c2 0c45 dd3e
00000070: 5506 60be 4bdc dc3e 9793 b5f8 5123 e03e
00000080: c214 8e21 1180 df3e f054 698a 7bc5 e13e
00000090: 7c3b f08e 4e11 e23e 73c5 2f8d f683 e23e
000000a0: 2021 39ac 2ea2 e23e 6d53 81c7 89c4 e13e
000000b0: 3b2d af33 4085 e13e 7152 72b9 8b51 e03e
000000c0: 6454 35f5 06bc e03e a6a8 49ed b583 e03e
000000d0: 18ab 9e43 8c2f e23e cbcb ff4f ecfc e43e
000000e0: 6dd0 dedc cc9a e73e f24f 39bb ad51 ea3e
000000f0: 7cda ebe3 9372 ec3e dc7d 77c7 aa62 eb3e
00000100: 0256 1bdf 2e3a e93e 3289 09f4 8fcb e53e
00000110: 690a 8c27 fedb dd3e f306 0255 09e8 ca3e
00000120: d166 7996 3251 8e3e 486c 0454 9060 3c3e
00000130: ebb2 861f 33cd 5c3e 494e c74d 4fb1 723e
00000140: 21f6 d249 8cf3 833e 0f99 a1d0 defc 943e
00000150: f90f 4121 8d7a a43e 0a54 5af7 8974 b53e
00000160: 0365 b832 260e ca3e 77cd 1b31 1f28 e63e
00000170: e4d9 133a 2b4a 133f cbf9 c32a 8280 0a3f
00000180: b36a 78b0 b73e ec3e c398 6caf 88ee ed3e
00000190: 35ee 5bd7 f2be ef3e 9f80 4bff b09e ed3e
000001a0: 1f11 77dc bf49 ed3e cf3f 0abc 2bce ea3e
000001b0: c262 fed4 5951 e83e 7e98 b2ef ded7 e63e
000001c0: 18f7 833c 6991 e33e 1ca7 ba13 c92f e33e
000001d0: 4bd4 6577 b033 e13e 781c 98a8 7491 e13e
000001e0: 47d1 2f41 2a37 e03e 731d c142 e0b3 e03e
000001f0: 368e e86c 814b e03e f604 22e4 4d58 e13e
00000200: 9e6f d167 fff6 e03e d697 2e38 5ee5 e13e
00000210: b2ba a3f7 3131 e23e 2a7b 06d3 bbee e13e
00000220: e68b 9efd 8e48 e23e 1967 287b 6ab2 e23e
00000230: 7488 e1e9 d561 e33e 5f23 071d 27fa e23e
00000240: 4caa d3fd 8f13 e43e dc02 d0c1 fe82 e33e
00000250: a259 059f d004 e43e fbbe b4eb 7061 e33e
00000260: 5800 29cd 7a94 e23e 883f dc0c 9d82 e13e
00000270: 82be 5e02 ed36 e03e a9fb 90c4 5e12 df3e
00000280: e2bc 3f54 6183 dc3e 2ce9 957e 9d93 da3e
00000290: 4031 d1c5 98f1 d73e 6840 1cb5 1aa7 d73e
000002a0: 3d62 4223 8e40 d53e 03d1 de88 3475 d53e
000002b0: acf4 c701 7d13 d43e 188c d193 1451 d43e
000002c0: 99d4 9d59 4381 d43e 98c1 b4ea df9c d43e
000002d0: c8c5 e23a dffc d53e 858b 2b23 2c5c d53e
000002e0: c5d2 5818 9620 d53e d381 f8dd 1a4f d53e
000002f0: c609 245d cc85 d53e 80b1 179a 69f0 d33e
00000300: b930 1924 de24 d43e aa26 bb87 0d48 d23e
00000310: 509d 8f22 5abd d13e d931 e804 c284 d03e
00000320: 93a1 bb08 8eda ce3e 003c 9a3a 7060 cd3e
00000330: 39a9 799d 1920 cb3e 7d4e 2e8a 1d6a cb3e
00000340: 60af 75f0 866b c93e 4848 27c8 e07d ca3e
00000350: 04d2 dcac 66f6 c83e 8916 67d5 1927 ca3e
00000360: 2def 0e79 0a9a c93e 9c8d ed41 e982 ca3e
00000370: 0f4d b4d8 eef3 c93e 32bc 055c 4d18 c93e
00000380: 06b7 b646 e17a c83e 0925 5b7f d51c c73e
00000390: 8776 f3c6 f4f6 c53e ba36 f4d9 4fd5 c43e
000003a0: e940 8f0a 97a7 c33e fe9f d161 3e7e c23e
000003b0: a4d6 39bf 7149 c23e 62cb e76b d2f2 c03e
000003c0: f700 f647 9a11 c13e bfcf 3043 219b c03e
000003d0: d67a 4c72 c9a6 c03e 2f39 d78d c516 c13e
000003e0: 93e7 2262 2487 c03e ae9b 4f16 9bd1 c03e
000003f0: ad6b e420 ea5c c03e e01b aaa0 bd03 c03e
00000400: 6f73 95be 5eab e53e ce3e c545 4607 e63e
00000410: 6dba bbff 7e14 e73e bdac bc24 ea91 e53e
00000420: a83f 89c1 8c0a e63e c7cd 2606 72d8 e43e
00000430: 44c4 559c 2dc8 e43e 3c0a dff0 9d31 e43e
00000440: 52bb d396 4c68 e23e 3ce1 f799 d57c e23e
00000450: ba10 9eea 91c4 e03e 643e 3f47 0c22 e13e
00000460: 9a22 fa6c 2fae e03e bdba 53b1 5ba0 e13e
00000470: 5e7a 5460 8cae e13e 0962 8991 b923 e33e
00000480: 8a2f bb3a 8937 e43e 1b3d 623a a8d4 e53e
00000490: bb05 a2cf ca99 e63e 8dce 2b8f 1320 e73e
000004a0: 59c6 fb35 c096 e73e 0e9e ccc4 4e73 e63e
000004b0: 689c a042 00b5 e53e ebca 2f39 ed80 e43e
000004c0: 8fe3 4907 8beb e43e f8c7 f5f3 b5d3 e43e
000004d0: 57bb 4bbf e104 e83e 8ffa 95cc d9cc e83e
000004e0: 7667 9542 3e88 ee3e d8e8 94b4 b472 f03e
000004f0: c0aa 53fc 02b4 f13e 685c 0f8e 86ac f13e
00000500: fc6d e679 4236 f03e 39af 4748 e2ff ea3e
00000510: 0d22 c097 110b e33e 2408 feef 6721 d13e
00000520: 92d9 9594 3d22 933e 6e8c 9f52 cc18 413e
00000530: 8773 83af f727 613e 683f 031b bbb2 773e
00000540: 7535 fa4b e7eb 883e 4bbc 8832 e00c 993e
00000550: 281e 1636 2d19 aa3e d0b9 41e5 382c bb3e
00000560: 60a9 d9c3 effb d03e 9f14 9642 fd9f eb3e
00000570: 20a7 a391 7765 193f c6c9 c516 7c3f 0f3f
00000580: daba c7d5 ada8 f23e 3c21 7404 12b3 f23e
00000590: b406 42c7 8e95 f43e c4fa ba89 c104 f33e
000005a0: 60f3 a7fd 514c f23e e3cb a67f b010 f13e
000005b0: 93c5 ae4d eeca ee3e 42cc 8a5b d2e1 ec3e
000005c0: c71e fdab 8293 e93e 75d2 1a5a 6946 e73e
000005d0: 7c05 133f e1b5 e53e fee0 d9e4 b525 e53e
000005e0: 46ad 68b4 fec4 e33e 09de 1986 2283 e43e
000005f0: 1134 b8ee 9789 e33e 196b 6988 4545 e43e
00000600: 2328 3ef4 2019 e43e e5e3 2d46 b64c e43e
00000610: 80fb c83d c825 e53e 28c1 9b57 9d4d e43e
00000620: 28f7 ca53 6a99 e53e d230 5be6 b224 e53e
00000630: 077b f32b 106f e63e 9b3d f521 e692 e63e
00000640: 3174 5d37 35d6 e73e 0c52 0265 5dba e63e
00000650: 539c c218 3bde e73e e851 8143 4c4f e63e
00000660: 6ea8 76cb 0848 e63e d289 f5ad 3754 e53e
00000670: cac6 6a6d 5ece e33e 749e db73 6ad1 e23e
00000680: ee6f 1dff ac55 e13e 0cf0 cd9c ed20 e03e
00000690: 51d0 7286 cc08 dd3e 0562 77ef c26a dc3e
000006a0: afa7 64e7 aa67 d93e ea51 d239 cef7 d83e
000006b0: e607 d59b a877 d83e ac1c 3c48 30a2 d73e
000006c0: 748f 84a8 bfeb d73e 07c8 94a2 9ea8 d73e
000006d0: d856 46e0 3da5 d83e a6c4 771b 94dc d73e
000006e0: b36c b54e b35a d93e 8677 b34a 3450 d83e
000006f0: 09ce 3412 3357 d93e b68b de3f 1e9a d73e
00000700: 9e5f 15f3 1da1 d73e 1013 6853 58f2 d53e
00000710: 9d70 c81e 3954 d53e f46b eed5 74b4 d33e
00000720: 50a6 64f0 c88b d23e c9f7 13a6 f4dc d13e
00000730: f622 5e5e 6f9d d03e 6091 0536 bae7 cf3e
00000740: 4408 2ac0 2b3d ce3e 8575 693a 7981 ce3e
00000750: f327 0dad 144e ce3e 3984 f715 9983 ce3e
00000760: 39f0 e8b6 ae8d cd3e 3482 7e72 b4a9 ce3e
00000770: 797f 78ac 37e8 cd3e adbc ab37 c2b0 cd3e
00000780: e287 8d28 3c38 cd3e 04a2 b88a 2194 cb3e
00000790: 2ed1 31f5 639b ca3e 272a 1e73 70f7 c83e
000007a0: bd75 9817 4364 c83e 0f74 8e5f 30cd c53e
000007b0: 1c07 2faf d28f c53e bf13 8f92 f83f c43e
000007c0: 8eaa e80e c48e c43e fcbe a44f 7adc c33e
000007d0: d3d7 f9af 87dc c33e 73f2 5ca8 ad11 c43e
000007e0: 4594 b226 e268 c33e 3916 a016 adf7 c33e
000007f0: 4485 3327 6b02 c33e 5b8e e9f5 82db c23e

error f8 [256, 128, 1]
1.6745981774499104e-07 1.7708305033627499e-07 1.8068085072721602e-07 1.8102490665465207e-07 1.8804543584944313e-07 1.8531383936608636e-07 1.804005514588635e-07 1.7459666051123785e-07
1.6340055419347598e-07 1.530279819564527e-07 1.334177814039e-07 1.255272370813335e-07 1.1420536716395246e-07 1.1752266171547096e-07 1.1242267347652913e-07 1.2373443454256696e-07
1.2306486960529186e-07 1.372311671051565e-07 1.4194964452672027e-07 1.4802234866541153e-07 1.4751578656625738e-07 1.4504333889128964e-07 1.4077995689742423e-07 1.3438593689547288e-07
1.351546237827921e-07 1.3700846215937016e-07 1.4971952858919138e-07 1.7548917308725163e-07 1.9658274062013491e-07 2.2272809488760678e-07 2.4075218426286245e-07 2.3212144546245883e-07
2.1930293271721557e-07 1.8705684269469477e-07 1.3302659491493182e-07 6.168650467595287e-08 7.634656831994112e-09 1.4406738833327807e-10 5.477445761480944e-10 1.368724694243433e-09
2.9149774474883788e-09 6.080819102591046e-09 1.2087356621998531e-08 2.506185112462592e-08 6.378442769318389e-08 2.435322058684832e-07 1.9648806854501473e-06 1.3421420951841807e-06
2.381228500941068e-07 2.59341067020818e-07 2.6519120876682326e-07 2.4905181233571746e-07 2.403113687620379e-07 2.1858124792415356e-07 1.993183134927207e-07 1.8047976614462096e-07
1.5712485085419457e-07 1.4741551534114153e-07 1.3379915811978606e-07 1.3489017104711793e-07 1.2759006070343797e-07 1.339148782070262e-07 1.3781627291826212e-07 1.5190295497003357e-07
1.4877548101027568e-07 1.6732174897713224e-07 1.7363197927913672e-07 1.7104664903823145e-07 1.7968079996260688e-07 1.8371398633889645e-07 1.8991578270844446e-07 1.8691884506727795e-07
1.8742161876413313e-07 1.8541491853504574e-07 1.7981502471818728e-07 1.7170430219393415e-07 1.5929478307144604e-07 1.4692796508837697e-07 1.3503126163950483e-07 1.2489882105872106e-07
1.1447840277674393e-07 1.0230423406116603e-07 9.205448330288559e-08 8.617146704647437e-08 7.820224485121192e-08 7.59041859104283e-08 7.116128196772543e-08 7.3977907774614e-08
7.622355274302075e-08 8.016158334909004e-08 8.608619769749346e-08 8.592993085772724e-08 8.531678748296466e-08 8.782608628575363e-08 8.625988831202298e-08 8.131289240903727e-08
7.884314874329416e-08 7.208371123308402e-08 6.900408435831446e-08 6.355557946018101e-08 5.8981978244453534e-08 5.465321156612586e-08 5.035906232185087e-08 4.863246123604353e-08
4.48732298819708e-08 4.528110298531489e-08 4.3949828437881065e-08 4.562035737902979e-08 4.639964553790302e-08 4.8210965725327256e-08 4.803202313774409e-08 4.689570643124583e-08
4.590839122984063e-08 4.350017390665759e-08 4.105209051687902e-08 3.950334896162604e-08 3.644486175018619e-08 3.479235448303328e-08 3.296110542665282e-08 3.053915631702902e-08
2.987421996086432e-08 2.8270528966651705e-08 2.8710721324120587e-08 2.9213325101694702e-08 2.8598198139015804e-08 2.9137516840515903e-08 2.8757285017219332e-08 2.8175043979159436e-08
1.8236794056678093e-07 1.9078598384737498e-07 2.0008297179789477e-07 1.976255558016758e-07 1.957986608671531e-07 1.9321045978548922e-07 1.8358889085277206e-07 1.7986653053600115e-07
1.612239345717648e-07 1.549776092926448e-07 1.3826228561632814e-07 1.36010157497838e-07 1.263584774154468e-07 1.2727640017065766e-07 1.3004176046450278e-07 1.357423335368351e-07
1.484273510106101e-07 1.5799575362126165e-07 1.675319057983453e-07 1.723420085490363e-07 1.7594890542272964e-07 1.7253182372434948e-07 1.6541345792914937e-07 1.592084100102708e-07
1.576937341046447e-07 1.6090383278184563e-07 1.828467614706794e-07 1.9934928751438622e-07 2.3730487586777572e-07 2.6430158273401045e-07 2.835829111033748e-07 2.856249524787064e-07
2.6386616429420816e-07 2.1994076222635625e-07 1.579564676115989e-07 7.636674312449308e-08 9.008222313134252e-09 1.6328432018094492e-10 6.143159931664934e-10 1.608932593441086e-09
3.4983076823134336e-09 6.939810965995397e-09 1.4188558418070097e-08 3.0688912058341276e-08 7.71557354285914e-08 2.822665365022195e-07 2.4407498076663343e-06 1.510380882915428e-06
2.9392462033671524e-07 3.0322888606623097e-07 3.2437482552053903e-07 2.997997713501628e-07 2.826855205998728e-07 2.6191879786958285e-07 2.3592566668004797e-07 2.1553617185686455e-07
1.915806329640201e-07 1.7031033564215433e-07 1.5767677672501192e-07 1.5093216333048782e-07 1.443483610253884e-07 1.4842991463119687e-07 1.4685669141664105e-07 1.5566698887722623e-07
1.615444730259957e-07 1.6858337045283627e-07 1.7863678648428074e-07 1.7637490786978213e-07 1.894256033296047e-07 1.888765409589955e-07 1.9693907239765524e-07 2.0132541516828507e-07
2.0551351401624366e-07 1.9740816542264226e-07 2.008554793968914e-07 1.8539161729972884e-07 1.7761136848068998e-07 1.6661124393277888e-07 1.5325936522831774e-07 1.4183585360331883e-07
1.2831222382258713e-07 1.1712916951977353e-07 1.0558845622465313e-07 9.748692623496084e-08 8.769981417971334e-08 8.301391016311922e-08 8.161340908608403e-08 7.905030765374837e-08
8.139437511083425e-08 8.400437740135527e-08 8.777054080904822e-08 8.780342923763498e-08 9.516329301632446e-08 9.191257409003768e-08 9.421867722902153e-08 8.821898981363015e-08
8.670329982837343e-08 8.097273078065425e-08 7.630848086024047e-08 7.027399408169068e-08 6.60200142146708e-08 6.19347001753889e-08 5.738249716865353e-08 5.3316604595538006e-08
4.9988216803577384e-08 4.858821240454046e-08 4.886366057373322e-08 4.8821542449661004e-08 5.003302046005065e-08 5.164440499403118e-08 5.095605206222986e-08 5.164196829906699e-08
5.028907238004643e-08 4.7803238107109365e-08 4.5626363014724014e-08 4.324480616409438e-08 4.1203104933965807e-08 3.783957977915709e-08 3.598878285452339e-08 3.415185296119575e-08
3.3080242747449123e-08 3.189372040590258e-08 3.133658029558684e-08 3.143622215799501e-08 3.1141207860575976e-08 3.209541479298554e-08 3.0778270741341e-08 3.0769549364501586e-08
00000000: 29df 6522 e079 863e ba08 c1fb 86c4 873e
00000010: 9408 0192 2540 883e 39cc 13eb f74b 883e
00000020: c2fe 6825 313d 893e bd35 f5c4 55df 883e
00000030: cded 2908 8436 883e 3ef9 9b77 186f 873e
00000040: e02a 7d79 66ee 853e 6917 425d 008a 843e
00000050: f3be 4e37 33e8 813e c879 1241 15d9 803e
00000060: 6ad7 0011 22a8 7e3e fb66 8287 188c 7f3e
00000070: f77b 6096 a02d 7e3e 323f a698 7b9b 803e
00000080: 0dca 720a 7a84 803e 54ea 841c 3a6b 823e
00000090: a313 1947 5a0d 833e fe61 2559 02de 833e
000000a0: b19d b494 9acc 833e 8cdf 7db3 a677 833e
000000b0: 2c55 b698 29e5 823e c3c3 a933 7709 823e
000000c0: 501d a7a4 e023 823e 5e53 902d 9363 823e
000000d0: 080a 95e6 5218 843e 97fb 4217 c38d 873e
000000e0: 72c0 b312 8862 8a3e a204 920a e1e4 8d3e
000000f0: 5a6e d54d 1728 903e 0f0c a5d3 a127 8f3e
00000100: 5e83 08ff 306f 8d3e 7249 8763 391b 893e
00000110: 3d06 a54d c2da 813e d8ef 7877 108f 703e
00000120: 5f32 4f6d 3265 403e 6874 3eac ebcc e33d
00000130: 35bb 6f22 03d2 023e c44c 7801 b783 173e
00000140: 10e8 146b 1a0a 293e 6e05 506a ee1d 3a3e
00000150: 29d5 3a36 18f5 493e 9858 8bfd f2e8 5a3e
00000160: 2083 ca84 3b1f 713e 6e87 e6f7 d957 903e
00000170: ef90 9694 8c7b c03e e8fe fbd6 7484 b63e
00000180: 57e2 79bd d6f5 8f3e 25ff 3213 7267 913e
00000190: 14fd 3e45 f3cb 913e 14ca 4e74 adb6 903e
000001a0: 9dd0 b393 8420 903e 58c7 59fd 6456 8d3e
000001b0: 06dd 2f6d 86c0 8a3e 2e46 c7cf 3c39 883e
000001c0: e3f8 e0cd c416 853e 56c0 fa95 28c9 833e
000001d0: ed4b 53d7 4df5 813e b928 087e ca1a 823e
000001e0: 178b eb0a f61f 813e fad7 cbb9 47f9 813e
000001f0: 851d aec1 547f 823e 7c23 b385 5863 843e
00000200: ba7c 6bf8 e2f7 833e 0d15 2cab 2175 863e
00000210: 002f 970a f34d 873e fd8e 6f3c 1ef5 863e
00000220: e1ec e007 c91d 883e c494 3550 5da8 883e
00000230: 4567 1ee4 747d 893e 8c2b 7f8c 7b16 893e
00000240: 97b2 36fe c127 893e 8efd 02df cee2 883e
00000250: 4381 28af 6522 883e 1c73 b003 b70b 873e
00000260: 5e60 d7ba 5361 853e c641 690c 68b8 833e
00000270: 7a30 cd89 a31f 823e 2e52 fda5 7dc3 803e
00000280: 2e5a 165c e5ba 7e3e 5973 651e 4b76 7b3e
00000290: 655e b398 efb5 783e 8b66 e17a a821 773e
000002a0: 077e c570 04fe 743e 10cf 618f 1860 743e
000002b0: 6afb f382 2a1a 733e ae2c e31d b9db 733e
000002c0: 7df6 baeb 0a76 743e 0480 e67c a984 753e
000002d0: d246 df67 cc1b 773e d340 9754 0f11 773e
000002e0: 0d15 51cc ece6 763e 464d 78d9 5c93 773e
000002f0: 86ea db00 bc27 773e 7329 f487 c7d3 753e
00000300: 650f 4d57 0f2a 753e 227e 0c0f 8e59 733e
00000310: dc67 9ab0 ec85 723e 5464 f993 810f 713e
00000320: 3f91 7cde 6baa 6f3e 0dd4 7cee 7a57 6d3e
00000330: 8565 9dfc 4b09 6b3e a8fc 999c fe1b 6a3e
00000340: 702e c06a 5417 683e 752c 102d 634f 683e
00000350: 17a1 f31d 6b98 673e 2644 fca0 037e 683e
00000360: 2a91 b564 1ee9 683e d62f 8d8e 10e2 693e
00000370: bf8e 0293 78c9 693e 39a0 04fc 4b2d 693e
00000380: 4593 45eb 99a5 683e 113f fe4d 9e5a 673e
00000390: 09f4 1b07 280a 663e c7b1 5387 4c35 653e
000003a0: 276d 9893 f190 633e 7ac9 5e25 d3ad 623e
000003b0: c200 3ccc 23b2 613e d5e7 040a 4565 603e
000003c0: a078 c4ab e109 603e dc0d e19e f15a 5e3e
000003d0: 7769 6d67 f1d3 5e3e 6242 2b00 195e 5f3e
000003e0: 53ea ed49 03b5 5e3e 8919 f177 4249 5f3e
000003f0: 80d7 5908 bee0 5e3e 2e44 4376 b240 5e3e
00000400: 0e27 975e 1d7a 883e 499b e142 5b9b 893e
00000410: 16b8 9d6e ccda 8a3e f4d0 bbc5 5c86 8a3e
00000420: 627b 0f3c 9747 8a3e 5ed5 582d a9ee 893e
00000430: 438a 37f6 10a4 883e 6bfd f2bb 2a24 883e
00000440: b68e d4b9 9ca3 853e 2906 bb77 fdcc 843e
00000450: 4f94 fdec a78e 823e 5e1c 50ff 4541 823e
00000460: d8d2 e6eb a4f5 803e 51d9 300e 2f15 813e
00000470: 973a fc6b 3374 813e f210 5e31 1238 823e
00000480: 09fb 59c9 eceb 833e 4342 9158 b134 853e
00000490: 2557 433a 5a7c 863e 17a9 bd56 a021 873e
000004a0: 5df3 72f0 8e9d 873e 8f6b 84f8 2528 873e
000004b0: b9f2 be29 9033 863e 778d fffb 5b5e 853e
000004c0: e07f 13c1 502a 853e 4fed ad14 9d98 853e
000004d0: eaa1 691f 918a 883e ceb1 7be0 96c1 8a3e
000004e0: 2e02 44c3 bbd9 8f3e a6ea 60a7 aabc 913e
000004f0: ed85 31d5 ea07 933e 9940 63d3 ff2a 933e
00000500: 9f3a cca9 2fb5 913e 9731 6767 1b85 8d3e
00000510: db92 56c8 5733 853e e103 e1f3 e17f 743e
00000520: d4bb 3895 5258 433e cc14 3468 0e71 e63d
00000530: d0a1 92a3 941b 053e df3a 9c0e 29a4 1b3e
00000540: b374 9525 dc0c 2e3e e1a3 4921 67ce 3d3e
00000550: 1782 3c13 3e78 4e3e 9e19 d219 da79 603e
00000560: 2161 530d 1ab6 743e 5b13 275b 4df1 923e
00000570: 577c a265 7879 c43e 5fc4 d757 0957 b93e
00000580: 87e6 a726 96b9 933e 2eef 92be 6e59 943e
00000590: 4bee d591 b7c4 953e 6174 a256 851e 943e
000005a0: d024 4f11 80f8 923e 6e27 1f0e bb93 913e
000005b0: 3311 461c 58aa 8f3e 4735 a137 c4ed 8c3e
000005c0: 8034 9d11 a9b6 893e 2953 118e d1db 863e
000005d0: e7ad 7398 bb29 853e b546 4459 fd41 843e
000005e0: 2a76 769c c55f 833e f7a1 1c56 03ec 833e
000005f0: 20d4 5e1e f5b5 833e 78f9 8c50 ade4 843e
00000600: 8d06 4336 a0ae 853e b716 2d02 7ba0 863e
00000610: 65cb 85ca e9f9 873e c60f ae18 32ac 873e
00000620: efe9 483a 9d6c 893e e1b0 bd9f bf59 893e
00000630: 6d4a 8866 c66e 8a3e 6cb5 5d14 7d05 8b3e
00000640: f152 92fc 6395 8b3e 0260 1e96 e47e 8a3e
00000650: 9465 157b 57f5 8a3e 9e59 4be9 01e2 883e
00000660: e404 741e aed6 873e ecb2 0b00 b85c 863e
00000670: aa0f 11a2 f391 843e 75c4 b75c 7109 833e
00000680: 6c7e b241 c638 813e 7616 3424 0e71 7f3e
00000690: 2ba4 1bc4 fb57 7c3e c94e aa24 402b 7a3e
000006a0: e5d0 7572 af8a 773e a08f e026 ac48 763e
000006b0: 439f bf46 6ee8 753e 31cb 17b8 4b38 753e
000006c0: 2f51 6bfd 60d9 753e c621 c3a2 bc8c 763e
000006d0: 7bb9 e1ae 8b8f 773e 814b 3243 ce91 773e
000006e0: 1ab9 f75a 928b 793e af2c 6c1a 2fac 783e
000006f0: 4cf3 a87f a84a 793e 9bd3 a6e1 5cae 773e
00000700: c281 cc94 3446 773e cec1 2b58 67bc 753e
00000710: b7a6 f7fd e07b 743e 3e65 8f2d 31dd 723e
00000720: 2f8b 6a5f dcb8 713e 5495 a1c4 1ea0 703e
00000730: 7890 bb21 97ce 6e3e cca1 2d41 c79f 6c3e
00000740: 6196 2305 54d6 6a3e 2033 8fbe e915 6a3e
00000750: 9688 1a37 c53b 6a3e 9794 c450 fb35 6a3e
00000760: 4ca7 9968 7cdc 6a3e d27c 2cf6 f3b9 6b3e
00000770: 5fd2 28b2 585b 6b3e 5670 603a 9eb9 6b3e
00000780: 1c5f 436f adff 6a3e 480e a7ea 06aa 693e
00000790: fd58 f1ee d67e 683e 3e47 da59 8537 673e
000007a0: 21e2 0d60 e91e 663e 6d5a c9da a150 643e
000007b0: 6036 1bba 4252 633e 6844 8a80 cb55 623e
000007c0: 2d4c d291 83c2 613e 40c4 ab86 701f 613e
000007d0: 153e afe6 ddd2 603e f719 cbbc 8fe0 603e
000007e0: 97c7 3bd8 03b8 603e 3038 3404 293b 613e
000007f0: 879b 4821 2286 603e a9ca 1a46 ef84 603e

xEdges f8 [257]
-0.3116164130234355 -0.30923872662574425 -0.30686104022805294 -0.3044833538303617 -0.30210566743267037 -0.2997279810349791 -0.29735029463728785 -0.29497260823959653
-0.2925949218419053 -0.29021723544421396 -0.2878395490465227 -0.28546186264883144 -0.28308417625114013 -0.28070648985344887 -0.2783288034557576 -0.2759511170580663
-0.27357343066037504 -0.2711957442626837 -0.26881805786499247 -0.2664403714673012 -0.2640626850696099 -0.26168499867191863 -0.2593073122742273 -0.25692962587653606
-0.2545519394788448 -0.2521742530811535 -0.24979656668346223 -0.24741888028577094 -0.24504119388807966 -0.2426635074903884 -0.24028582109269708 -0.23790813469500582
-0.23553044829731454 -0.23315276189962325 -0.230775075501932 -0.22839738910424068 -0.22601970270654942 -0.22364201630885813 -0.22126432991116685 -0.2188866435134756
-0.2165089571157843 -0.21413127071809301 -0.21175358432040173 -0.20937589792271044 -0.20699821152501918 -0.2046205251273279 -0.2022428387296366 -0.19986515233194535
-0.19748746593425404 -0.19510977953656278 -0.1927320931388715 -0.1903544067411802 -0.18797672034348895 -0.18559903394579766 -0.18322134754810637 -0.18084366115041509
-0.1784659747527238 -0.1760882883550325 -0.17371060195734125 -0.17133291555964997 -0.16895522916195868 -0.1665775427642674 -0.16419985636657614 -0.16182216996888485
-0.15944448357119356 -0.15706679717350228 -0.154689110775811 -0.15231142437811973 -0.14993373798042844 -0.14755605158273716 -0.14517836518504587 -0.1428006787873546
-0.14042299238966333 -0.13804530599197204 -0.13566761959428075 -0.13328993319658947 -0.1309122467988982 -0.12853456040120692 -0.12615687400351563 -0.12377918760582435
-0.12140150120813309 -0.1190238148104418 -0.11664612841275052 -0.11426844201505923 -0.11189075561736794 -0.10951306921967668 -0.1071353828219854 -0.10475769642429411
-0.10238001002660282 -0.10000232362891154 -0.09762463723122028 -0.09524695083352899 -0.0928692644358377 -0.09049157803814642 -0.08811389164045516 -0.08573620524276387
-0.08335851884507259 -0.0809808324473813 -0.07860314604969001 -0.07622545965199876 -0.07384777325430747 -0.07147008685661618 -0.0690924004589249 -0.06671471406123364
-0.06433702766354235 -0.061959341265851064 -0.059581654868159806 -0.05720396847046849 -0.05482628207277723 -0.05244859567508592 -0.05007090927739466 -0.0476932228797034
-0.045315536482012087 -0.04293785008432083 -0.04056016368662951 -0.038182477288938255 -0.035804790891246996 -0.03342710449355568 -0.031049418095864423 -0.028671731698173164
-0.02629404530048185 -0.02391635890279059 -0.021538672505099277 -0.019160986107408018 -0.01678329970971676 -0.014405613312025445 -0.012027926914334186 -0.009650240516642872
-0.007272554118951613 -0.004894867721260354 -0.00251718132356904 -0.00013949492587778112 0.002238191471813533 0.004615877869504792 0.006993564267196051 0.009371250664887365
0.011748937062578624 0.014126623460269938 0.016504309857961197 0.018881996255652456 0.02125968265334377 0.02363736905103503 0.026015055448726288 0.028392741846417602
0.03077042824410886 0.033148114641800175 0.035525801039491434 0.03790348743718269 0.04028117383487401 0.042658860232565265 0.04503654663025658 0.04741423302794784
0.0497919194256391 0.05216960582333041 0.05454729222102167 0.056924978618712985 0.059302665016404243 0.0616803514140955 0.06405803781178682 0.06643572420947808
0.06881341060716933 0.07119109700486065 0.07356878340255191 0.07594646980024322 0.07832415619793448 0.08070184259562574 0.08307952899331705 0.08545721539100831
0.08783490178869963 0.09021258818639089 0.09259027458408214 0.09496796098177346 0.09734564737946472 0.09972333377715603 0.10210102017484729 0.10447870657253855
0.10685639297022986 0.10923407936792112 0.11161176576561244 0.1139894521633037 0.11636713856099495 0.11874482495868627 0.12112251135637753 0.12350019775406879
0.1258778841517601 0.12825557054945136 0.13063325694714267 0.13301094334483393 0.1353886297425252 0.1377663161402165 0.14014400253790776 0.14252168893559908
0.14489937533329034 0.1472770617309816 0.1496547481286729 0.15203243452636417 0.15441012092405548 0.15678780732174674 0.159165493719438 0.16154318011712931
0.16392086651482057 0.1662985529125119 0.16867623931020315 0.1710539257078944 0.17343161210558572 0.17580929850327698 0.17818698490096824 0.18056467129865955
0.1829423576963508 0.18532004409404212 0.18769773049173338 0.1900754168894247 0.1924531032871159 0.19483078968480722 0.19720847608249853 0.19958616248018973
0.20196384887788105 0.20434153527557236 0.20671922167326368 0.20909690807095488 0.2114745944686462 0.2138522808663375 0.2162299672640287 0.21860765366172002
0.22098534005941134 0.22336302645710254 0.22574071285479386 0.22811839925248517 0.23049608565017649 0.2328737720478677 0.235251458445559 0.23762914484325032
0.24000683124094152 0.24238451763863283 0.24476220403632415 0.24713989043401535 0.24951757683170667 0.251895263229398 0.2542729496270892 0.2566506360247805
0.2590283224224718 0.2614060088201631 0.26378369521785433 0.26616138161554564 0.26853906801323696 0.27091675441092816 0.2732944408086195 0.2756721272063108
0.278049813604002 0.2804275000016933 0.2828051863993846 0.28518287279707594 0.28756055919476714 0.28993824559245845 0.29231593199014977 0.29469361838784097
00000000: 6b47 b5f7 85f1 d3bf 92e9 603a 91ca d3bf
00000010: b88b 0c7d 9ca3 d3bf df2d b8bf a77c d3bf
00000020: 05d0 6302 b355 d3bf 2c72 0f45 be2e d3bf
00000030: 5314 bb87 c907 d3bf 79b6 66ca d4e0 d2bf
00000040: a058 120d e0b9 d2bf c6fa bd4f eb92 d2bf
00000050: ed9c 6992 f66b d2bf 143f 15d5 0145 d2bf
00000060: 3ae1 c017 0d1e d2bf 6183 6c5a 18f7 d1bf
00000070: 8825 189d 23d0 d1bf aec7 c3df 2ea9 d1bf
00000080: d569 6f22 3a82 d1bf fb0b 1b65 455b d1bf
00000090: 22ae c6a7 5034 d1bf 4950 72ea 5b0d d1bf
000000a0: 6ff2 1d2d 67e6 d0bf 9694 c96f 72bf d0bf
000000b0: bc36 75b2 7d98 d0bf e3d8 20f5 8871 d0bf
000000c0: 0a7b cc37 944a d0bf 301d 787a 9f23 d0bf
000000d0: ae7e 477a 55f9 cfbf fbc2 9eff 6bab cfbf
000000e0: 4807 f684 825d cfbf 964b 4d0a 990f cfbf
000000f0: e28f a48f afc1 cebf 30d4 fb14 c673 cebf
00000100: 7d18 539a dc25 cebf ca5c aa1f f3d7 cdbf
00000110: 18a1 01a5 098a cdbf 64e5 582a 203c cdbf
00000120: b229 b0af 36ee ccbf ff6d 0735 4da0 ccbf
00000130: 4cb2 5eba 6352 ccbf 9af6 b53f 7a04 ccbf
00000140: e73a 0dc5 90b6 cbbf 347f 644a a768 cbbf
00000150: 81c3 bbcf bd1a cbbf ce07 1355 d4cc cabf
00000160: 1c4c 6ada ea7e cabf 6990 c15f 0131 cabf
00000170: b6d4 18e5 17e3 c9bf 0419 706a 2e95 c9bf
00000180: 505d c7ef 4447 c9bf 9ea1 1e75 5bf9 c8bf
00000190: ebe5 75fa 71ab c8bf 382a cd7f 885d c8bf
000001a0: 866e 2405 9f0f c8bf d3b2 7b8a b5c1 c7bf
000001b0: 20f7 d20f cc73 c7bf 6d3b 2a95 e225 c7bf
000001c0: ba7f 811a f9d7 c6bf 07c4 d89f 0f8a c6bf
000001d0: 5508 3025 263c c6bf a24c 87aa 3cee c5bf
000001e0: ef90 de2f 53a0 c5bf 3cd5 35b5 6952 c5bf
000001f0: 8a19 8d3a 8004 c5bf d75d e4bf 96b6 c4bf
00000200: 24a2 3b45 ad68 c4bf 71e6 92ca c31a c4bf
00000210: be2a ea4f dacc c3bf 0c6f 41d5 f07e c3bf
00000220: 59b3 985a 0731 c3bf a6f7 efdf 1de3 c2bf
00000230: f33b 4765 3495 c2bf 4180 9eea 4a47 c2bf
00000240: 8ec4 f56f 61f9 c1bf db08 4df5 77ab c1bf
00000250: 284d a47a 8e5d c1bf 7591 fbff a40f c1bf
00000260: c3d5 5285 bbc1 c0bf 101a aa0a d273 c0bf
00000270: 5d5e 0190 e825 c0bf 5445 b12a feaf bfbf
00000280: f0cd 5f35 2b14 bfbf 8a56 0e40 5878 bebf
00000290: 24df bc4a 85dc bdbf be67 6b55 b240 bdbf
000002a0: 58f0 1960 dfa4 bcbf f478 c86a 0c09 bcbf
000002b0: 8e01 7775 396d bbbf 288a 2580 66d1 babf
000002c0: c212 d48a 9335 babf 5c9b 8295 c099 b9bf
000002d0: f823 31a0 edfd b8bf 92ac dfaa 1a62 b8bf
000002e0: 2c35 8eb5 47c6 b7bf c6bd 3cc0 742a b7bf
000002f0: 6246 ebca a18e b6bf fcce 99d5 cef2 b5bf
00000300: 9657 48e0 fb56 b5bf 30e0 f6ea 28bb b4bf
00000310: ca68 a5f5 551f b4bf 66f1 5300 8383 b3bf
00000320: 007a 020b b0e7 b2bf 9a02 b115 dd4b b2bf
00000330: 348b 5f20 0ab0 b1bf d013 0e2b 3714 b1bf
00000340: 6a9c bc35 6478 b0bf 084a d680 22b9 afbf
00000350: 405b 3396 7c81 aebf 706c 90ab d649 adbf
00000360: a87d edc0 3012 acbf d88e 4ad6 8ada aabf
00000370: 10a0 a7eb e4a2 a9bf 48b1 0401 3f6b a8bf
00000380: 78c2 6116 9933 a7bf b0d3 be2b f3fb a5bf
00000390: e0e4 1b41 4dc4 a4bf 18f6 7856 a78c a3bf
000003a0: 5007 d66b 0155 a2bf 8018 3381 5b1d a1bf
000003b0: 7053 202d 6bcb 9fbf e075 da57 1f5c 9dbf
000003c0: 4098 9482 d3ec 9abf b0ba 4ead 877d 98bf
000003d0: 10dd 08d8 3b0e 96bf 80ff c202 f09e 93bf
000003e0: f021 7d2d a42f 91bf a088 6eb0 b080 8dbf
000003f0: 80cd e205 19a2 88bf 4012 575b 81c3 83bf
00000400: 40ae 9661 d3c9 7dbf 0038 7f0c a40c 74bf
00000410: 0083 cf6e e99e 64bf 0068 094a ac48 22bf
00000420: 8056 8ee5 d355 623f 80a1 de47 19e8 723f
00000430: c017 f69c 48a5 7c3f 20c7 06f9 3b31 833f
00000440: 4082 92a3 d30f 883f 803d 1e4e 6bee 8c3f
00000450: 50fc 547c 81e6 903f e0d9 9a51 cd55 933f
00000460: 80b7 e026 19c5 953f 1095 26fc 6434 983f
00000470: a072 6cd1 b0a3 9a3f 4050 b2a6 fc12 9d3f
00000480: d02d f87b 4882 9f3f b805 9f28 caf8 a03f
00000490: 80f4 4113 7030 a23f 48e3 e4fd 1568 a33f
000004a0: 18d2 87e8 bb9f a43f e0c0 2ad3 61d7 a53f
000004b0: b0af cdbd 070f a73f 789e 70a8 ad46 a83f
000004c0: 408d 1393 537e a93f 107c b67d f9b5 aa3f
000004d0: d86a 5968 9fed ab3f a859 fc52 4525 ad3f
000004e0: 7048 9f3d eb5c ae3f 3837 4228 9194 af3f
000004f0: 0493 7289 1b66 b03f 680a c47e ee01 b13f
00000500: cc81 1574 c19d b13f 34f9 6669 9439 b23f
00000510: 9870 b85e 67d5 b23f 00e8 0954 3a71 b33f
00000520: 645f 5b49 0d0d b43f c8d6 ac3e e0a8 b43f
00000530: 304e fe33 b344 b53f 94c5 4f29 86e0 b53f
00000540: fc3c a11e 597c b63f 60b4 f213 2c18 b73f
00000550: c42b 4409 ffb3 b73f 2ca3 95fe d14f b83f
00000560: 901a e7f3 a4eb b83f f891 38e9 7787 b93f
00000570: 5c09 8ade 4a23 ba3f c080 dbd3 1dbf ba3f
00000580: 28f8 2cc9 f05a bb3f 8c6f 7ebe c3f6 bb3f
00000590: f4e6 cfb3 9692 bc3f 585e 21a9 692e bd3f
000005a0: bcd5 729e 3cca bd3f 244d c493 0f66 be3f
000005b0: 88c4 1589 e201 bf3f ec3b 677e b59d bf3f
000005c0: aa59 dc39 c41c c03f 5c15 85b4 ad6a c03f
000005d0: 10d1 2d2f 97b8 c03f c28c d6a9 8006 c13f
000005e0: 7448 7f24 6a54 c13f 2804 289f 53a2 c13f
000005f0: dabf d019 3df0 c13f 8e7b 7994 263e c23f
00000600: 4037 220f 108c c23f f2f2 ca89 f9d9 c23f
00000610: a6ae 7304 e327 c33f 586a 1c7f cc75 c33f
00000620: 0c26 c5f9 b5c3 c33f bee1 6d74 9f11 c43f
00000630: 709d 16ef 885f c43f 2459 bf69 72ad c43f
00000640: d614 68e4 5bfb c43f 8ad0 105f 4549 c53f
00000650: 3c8c b9d9 2e97 c53f ee47 6254 18e5 c53f
00000660: a203 0bcf 0133 c63f 54bf b349 eb80 c63f
00000670: 067b 5cc4 d4ce c63f ba36 053f be1c c73f
00000680: 6cf2 adb9 a76a c73f 20ae 5634 91b8 c73f
00000690: d269 ffae 7a06 c83f 8625 a829 6454 c83f
000006a0: 36e1 50a4 4da2 c83f ea9c f91e 37f0 c83f
000006b0: 9e58 a299 203e c93f 4e14 4b14 0a8c c93f
000006c0: 02d0 f38e f3d9 c93f b68b 9c09 dd27 ca3f
000006d0: 6a47 4584 c675 ca3f 1a03 eefe afc3 ca3f
000006e0: cebe 9679 9911 cb3f 827a 3ff4 825f cb3f
000006f0: 3236 e86e 6cad cb3f e6f1 90e9 55fb cb3f
00000700: 9aad 3964 3f49 cc3f 4a69 e2de 2897 cc3f
00000710: fe24 8b59 12e5 cc3f b2e0 33d4 fb32 cd3f
00000720: 669c dc4e e580 cd3f 1658 85c9 cece cd3f
00000730: ca13 2e44 b81c ce3f 7ecf d6be a16a ce3f
00000740: 2e8b 7f39 8bb8 ce3f e246 28b4 7406 cf3f
00000750: 9602 d12e 5e54 cf3f 46be 79a9 47a2 cf3f
00000760: fa79 2224 31f0 cf3f d79a 654f 0d1f d03f
00000770: aff8 b90c 0246 d03f 8956 0eca f66c d03f
00000780: 63b4 6287 eb93 d03f 3d12 b744 e0ba d03f
00000790: 1570 0b02 d5e1 d03f efcd 5fbf c908 d13f
000007a0: c92b b47c be2f d13f a189 083a b356 d13f
000007b0: 7be7 5cf7 a77d d13f 5545 b1b4 9ca4 d13f
000007c0: 2da3 0572 91cb d13f 0701 5a2f 86f2 d13f
000007d0: e15e aeec 7a19 d23f bbbc 02aa 6f40 d23f
000007e0: 931a 5767 6467 d23f 6d78 ab24 598e d23f
000007f0: 47d6 ffe1 4db5 d23f 1f34 549f 42dc d23f

yEdges f8 [129]
-0.1319966230859819 -0.12724226432031308 -0.12248790555464424 -0.11773354678897542 -0.11297918802330659 -0.10822482925763777 -0.10347047049196895 -0.09871611172630013
-0.09396175296063129 -0.08920739419496246 -0.08445303542929364 -0.07969867666362482 -0.074944317897956 -0.07018995913228716 -0.06543560036661834 -0.06068124160094951
-0.05592688283528069 -0.05117252406961187 -0.046418165303943035 -0.041663806538274215 -0.03690944777260538 -0.03215508900693656 -0.02740073024126774 -0.022646371475598906
-0.017892012709930086 -0.013137653944261266 -0.008383295178592431 -0.0036289364129236112 0.001125422352745209 0.005879781118414029 0.010634139884082877 0.015388498649751697
0.020142857415420518 0.024897216181089338 0.029651574946758158 0.034405933712427006 0.039160292478095826 0.043914651243764646 0.04866901000943347 0.05342336877510229
0.058177727540771135 0.06293208630643995 0.06768644507210878 0.0724408038377776 0.07719516260344642 0.08194952136911524 0.08670388013478408 0.0914582389004529
0.09621259766612172 0.10096695643179054 0.10572131519745936 0.11047567396312821 0.11523003272879703 0.11998439149446585 0.12473875026013467 0.1294931090258035
0.1342474677914723 0.13900182655714113 0.14375618532280995 0.14851054408847883 0.15326490285414765 0.15801926161981647 0.1627736203854853 0.1675279791511541
0.17228233791682293 0.17703669668249175 0.18179105544816057 0.1865454142138294 0.1912997729794982 0.19605413174516703 0.2008084905108359 0.20556284927650473
0.21031720804217355 0.21507156680784237 0.2198259255735112 0.22458028433918 0.22933464310484883 0.23408900187051765 0.23884336063618647 0.2435977194018553
0.24835207816752417 0.253106436933193 0.2578607956988618 0.26261515446453065 0.2673695132301994 0.2721238719958683 0.27687823076153706 0.28163258952720593
0.2863869482928747 0.2911413070585436 0.29589566582421234 0.3006500245898812 0.3054043833555501 0.31015874212121886 0.31491310088688773 0.3196674596525565
0.32442181841822537 0.32917617718389414 0.333930535949563 0.3386848947152318 0.34343925348090065 0.3481936122465694 0.3529479710122383 0.35770232977790717
0.36245668854357593 0.3672110473092448 0.3719654060749136 0.37671976484058245 0.3814741236062512 0.3862284823719201 0.39098284113758885 0.39573719990325773
0.4004915586689265 0.40524591743459537 0.41000027620026414 0.414754634965933 0.4195089937316018 0.42426335249727065 0.4290177112629395 0.4337720700286083
0.43852642879427717 0.44328078755994593 0.4480351463256148 0.4527895050912836 0.45754386385695245 0.4622982226226212 0.4670525813882901 0.47180694015395885
0.47656129891962773
00000000: ff19 abed 43e5 c0bf a15d f679 7949 c0bf
00000010: 8542 830c 5e5b bfbf c9c9 1925 c923 bebf
00000020: 0c51 b03d 34ec bcbf 50d8 4656 9fb4 bbbf
00000030: 945f dd6e 0a7d babf d8e6 7387 7545 b9bf
00000040: 1b6e 0aa0 e00d b8bf 5ef5 a0b8 4bd6 b6bf
00000050: a27c 37d1 b69e b5bf e603 cee9 2167 b4bf
00000060: 2a8b 6402 8d2f b3bf 6d12 fb1a f8f7 b1bf
00000070: b199 9133 63c0 b0bf e841 5098 9c11 afbf
00000080: 7050 7dc9 72a2 acbf f85e aafa 4833 aabf
00000090: 7e6d d72b 1fc4 a7bf 067c 045d f554 a5bf
000000a0: 8c8a 318e cbe5 a2bf 1499 5ebf a176 a0bf
000000b0: 384f 17e1 ef0e 9cbf 446c 7143 9c30 97bf
000000c0: 5489 cba5 4852 92bf c84c 4b10 eae7 8abf
000000d0: e086 ffd4 422b 81bf 0004 cf66 6eba 6dbf
000000e0: 0027 c00c 5d70 523f 8095 c7b9 6515 783f
000000f0: b090 2f18 5ac7 853f 9056 7b53 0184 8f3f
00000100: 388e 6347 54a0 943f 2871 09e5 a77e 993f
00000110: 1854 af82 fb5c 9e3f 889b 2a90 a79d a13f
00000120: 008d fd5e d10c a43f 787e d02d fb7b a63f
00000130: f06f a3fc 24eb a83f 6861 76cb 4e5a ab3f
00000140: e452 499a 78c9 ad3f 2e22 8e34 511c b03f
00000150: ea9a f71b e653 b13f a613 6103 7b8b b23f
00000160: 628c caea 0fc3 b33f 1e05 34d2 a4fa b43f
00000170: dc7d 9db9 3932 b63f 98f6 06a1 ce69 b73f
00000180: 546f 7088 63a1 b83f 10e8 d96f f8d8 b93f
00000190: cc60 4357 8d10 bb3f 8ad9 ac3e 2248 bc3f
000001a0: 4652 1626 b77f bd3f 02cb 7f0d 4cb7 be3f
000001b0: be43 e9f4 e0ee bf3f 3d5e 29ee 3a93 c03f
000001c0: 9b1a de61 052f c13f f9d6 92d5 cfca c13f
000001d0: 5793 4749 9a66 c23f b74f fcbc 6402 c33f
000001e0: 150c b130 2f9e c33f 73c8 65a4 f939 c43f
000001f0: d184 1a18 c4d5 c43f 2f41 cf8b 8e71 c53f
00000200: 8dfd 83ff 580d c63f ebb9 3873 23a9 c63f
00000210: 4976 ede6 ed44 c73f a732 a25a b8e0 c73f
00000220: 05ef 56ce 827c c83f 63ab 0b42 4d18 c93f
00000230: c367 c0b5 17b4 c93f 2124 7529 e24f ca3f
00000240: 7fe0 299d aceb ca3f dd9c de10 7787 cb3f
00000250: 3b59 9384 4123 cc3f 9915 48f8 0bbf cc3f
00000260: f7d1 fc6b d65a cd3f 558e b1df a0f6 cd3f
00000270: b34a 6653 6b92 ce3f 1107 1bc7 352e cf3f
00000280: 71c3 cf3a 00ca cf3f e83f 4257 e532 d03f
00000290: 169e 1c91 ca80 d03f 46fc f6ca afce d03f
000002a0: 745a d104 951c d13f a4b8 ab3e 7a6a d13f
000002b0: d216 8678 5fb8 d13f 0275 60b2 4406 d23f
000002c0: 30d3 3aec 2954 d23f 6031 1526 0fa2 d23f
000002d0: 8e8f ef5f f4ef d23f beed c999 d93d d33f
000002e0: ee4b a4d3 be8b d33f 1caa 7e0d a4d9 d33f
000002f0: 4c08 5947 8927 d43f 7a66 3381 6e75 d43f
00000300: aac4 0dbb 53c3 d43f d822 e8f4 3811 d53f
00000310: 0881 c22e 1e5f d53f 36df 9c68 03ad d53f
00000320: 663d 77a2 e8fa d53f 949b 51dc cd48 d63f
00000330: c4f9 2b16 b396 d63f f457 0650 98e4 d63f
00000340: 22b6 e089 7d32 d73f 5214 bbc3 6280 d73f
00000350: 8072 95fd 47ce d73f b0d0 6f37 2d1c d83f
00000360: de2e 4a71 126a d83f 0e8d 24ab f7b7 d83f
00000370: 3ceb fee4 dc05 d93f 6c49 d91e c253 d93f
00000380: 9aa7 b358 a7a1 d93f ca05 8e92 8cef d93f
00000390: f863 68cc 713d da3f 28c2 4206 578b da3f
000003a0: 5620 1d40 3cd9 da3f 867e f779 2127 db3f
000003b0: b6dc d1b3 0675 db3f e43a aced ebc2 db3f
000003c0: 1499 8627 d110 dc3f 42f7 6061 b65e dc3f
000003d0: 7255 3b9b 9bac dc3f a0b3 15d5 80fa dc3f
000003e0: d011 f00e 6648 dd3f fe6f ca48 4b96 dd3f
000003f0: 2ece a482 30e4 dd3f 5c2c 7fbc 1532 de3f
00000400: 8c8a 59f6 fa7f de3f

zEdges f8 [2]
-1000.0 1000.0
00000000: 0000 0000 0040 8fc0 0000 0000 0040 8f40
