data/paper/bornagain_output/d22_1e9_intensityFactor0p2088_radius51_interferenceRange5_latticeParameter114.npz (npz, 503787 bytes, 5 tensors)

hist f8 [256, 128, 1]
0	0x3ee360459614ada8	9.239226246813098e-06
1	0x3ee267fbfaec7970	8.776754695069485e-06
2	0x3ee2515dfa4fadf8	8.734626883075643e-06
3	0x3ee34436235d771f	9.18695978285481e-06
4	0x3ee16b8894d2420a	8.306528480412685e-06
5	0x3ee390ef6840cc47	9.329868824270222e-06
6	0x3edea76f9c485dd5	7.308494279565732e-06
7	0x3ee259d7626b5a23	8.750411394070856e-06
8	0x3edc8d44bf8928be	6.807286802310528e-06
9	0x3ee145d1f1097e78	8.236281730577446e-06
10	0x3edbd9c5cd8e92bc	6.6401182373983614e-06
11	0x3ede2dc26357bf23	7.1951740685386805e-06
12	0x3edbf5c335732a76	6.666185831958652e-06
13	0x3edc0b604922d442	6.6863150484558005e-06
14	0x3edfcd1f091d4766	7.582009986810628e-06
15	0x3edd6f60fe98542a	7.017868463706154e-06
16	0x3ee18adba9907324	8.364874974070543e-06
17	0x3ee0575b7c5b5745	7.79211030580883e-06
18	0x3ee4404558254b5a	9.656456999939594e-06
19	0x3ee11a74464106d2	8.155506471155443e-06
20	0x3ee4805e9d7bdcea	9.775850159139726e-06
21	0x3ee1d8ec6dc5e70f	8.510283287621886e-06
22	0x3ee38ce3d5b8b8e2	9.322334043462521e-06
23	0x3ee107f22e81c28b	8.121032309045254e-06
24	0x3ee0d9efe38b6399	8.035333949706242e-06
25	0x3ee1399a2717bad5	8.21352407151308e-06
26	0x3ee1a1a55ea0ba36	8.40732078097066e-06
27	0x3ee64904fcd98ed5	1.0626426866617626e-05
28	0x3ee551bcbd64080d	1.0165827842193603e-05
29	0x3eecfcb4ab303e2f	1.3822141545132605e-05
30	0x3ee8e132a8310889	1.1863555533623653e-05
31	0x3eeeffe9c1fde7f2	1.4781790070850902e-05
32	0x3ee7674d666984f3	1.1159670248508317e-05
33	0x3ee77e64d127f7f0	1.120268146781106e-05
34	0x3eddf313c1ba6453	7.140522054215997e-06
35	0x3ecb7fc16a822826	3.2781416231019386e-06
36	0x3e8b94ddb7a46327	2.0549824936916836e-07
37	0x3e37b04314ca450a	5.515414191888334e-09
38	0x3e5f3859ccd3a6ab	2.907600276251598e-08
39	0x3e71ce505fceefef	6.633219835813189e-08
40	0x3e86d8b94c281d8c	1.702202663963263e-07
41	0x3e91780575bcd3d9	2.6030590104540566e-07
42	0x3ea6b52a20cf426f	6.767414234502799e-07
43	0x3eb3d65ab11a4806	1.1823964921925576e-06
44	0x3ecbecbb66d160b6	3.3288877632591745e-06
45	0x3ee6112e947407e7	1.0522421361350939e-05
46	0x3f1294c407d7ddee	7.088133312282255e-05
47	0x3f0a67dbca44b95e	5.0364870988739026e-05
48	0x3eec08dbd4604583	1.336794106168954e-05
49	0x3ef0e5aba22fc3c6	1.6114378137591587e-05
50	0x3eee456153e3755e	1.4434345413534107e-05
51	0x3ef18c89839fe710	1.6736005115070582e-05
52	0x3eeacbb640a4f015	1.2777209140162096e-05
53	0x3eee6d041d602d28	1.4508173006097679e-05
54	0x3ee7e334b6231c30	1.1390458613992361e-05
55	0x3ee8cf3572fb23e8	1.1830048236476405e-05
56	0x3ee40faab5a70227	9.56592491696644e-06
57	0x3ee4138081cf7eac	9.573068433909572e-06
58	0x3ee25d4e881b3336	8.75686623960093e-06
59	0x3ee10f49d9914a48	8.13470869523882e-06
60	0x3ee20bd06b30a611	8.60507439000554e-06
61	0x3ede6c763fd4506c	7.253570399674233e-06
62	0x3ee193f02cdf1c4a	8.381788031542937e-06
63	0x3edde61a2315ea01	7.128438072152248e-06
64	0x3ee31796de0eab3f	9.103844549181886e-06
65	0x3edf5851dd1b87ba	7.473230157125098e-06
66	0x3ee2db3cfed81e30	8.991431935902785e-06
67	0x3ee0c12cd02a74d6	7.989211103615767e-06
68	0x3ee2ca49cc09287c	8.95986011175222e-06
69	0x3ee193ffd6c3a76d	8.381901999549469e-06
70	0x3ee20cf06d951e84	8.60716993379631e-06
71	0x3ee33c4421d0a92a	9.17216044101341e-06
72	0x3ee1a54ea474e9ff	8.414140337910553e-06
73	0x3ee42f11a1145782	9.624415755509411e-06
74	0x3ee0daefb4ee8bf1	8.037195270043834e-06
75	0x3ee43647476ae16d	9.637844624919075e-06
76	0x3ee07d8d1301d815	7.863251625144682e-06
77	0x3ee36c6ead282e61	9.261876958730616e-06
78	0x3edfb9e8e8894eeb	7.5641179440759806e-06
79	0x3ee04e14ed2ff1fc	7.774833113310426e-06
80	0x3edc9cc0b15904d3	6.821707548677549e-06
81	0x3edb7d00856eedba	6.553718853770575e-06
82	0x3ed9e48d3ce328e8	6.173319844824376e-06
83	0x3ed6ed43c234646e	5.46617869481249e-06
84	0x3ed7bfc78e7c9654	5.662235913727455e-06
85	0x3ed323f369e62a66	4.563434826807856e-06
86	0x3ed6fd113f09db1f	5.480896093082773e-06
87	0x3ed1723adbd0dce8	4.159500744774942e-06
88	0x3ed618a48455e5f6	5.268158991150645e-06
89	0x3ed3703759f88d8b	4.6344624986845385e-06
90	0x3ed70c1c47852a63	5.494906070000781e-06
91	0x3ed399cdfe49437b	4.673194756125354e-06
92	0x3ed5e7a14d4a91b0	5.222512488832159e-06
93	0x3ed4a8739b141381	4.925254345926399e-06
94	0x3ed2eab5109bf94b	4.510122616484191e-06
95	0x3ed5154ab178c13f	5.026619667655989e-06
96	0x3ed1a573228ca48b	4.207202928077233e-06
97	0x3ed3a8465c24926b	4.686671163410369e-06
98	0x3ed0689b00d0565f	3.912118711665157e-06
99	0x3ed1e5be3ee5fdf0	4.267080824126964e-06
100	0x3ecd753984d0a734	3.511656393691363e-06
101	0x3ed085e2932a4f7a	3.939387442603607e-06
102	0x3ecaf8a97f13e167	3.2152338397228996e-06
103	0x3ecbbca1824dd09d	3.3064889230442733e-06
104	0x3ecb01f842cdebd5	3.2195680632041484e-06
105	0x3ec99df3d359a0bb	3.053784577034753e-06
106	0x3ecba8b410a49af7	3.2972094504869856e-06
107	0x3ec93115a7311b49	3.003089028594435e-06
108	0x3ecb385740cd7035	3.244886562487845e-06
109	0x3ec69fbba8e59720	2.696985865901789e-06
110	0x3eca97b05dc34b34	3.1700771910640402e-06
111	0x3ec679776d992cab	2.679166624363474e-06
112	0x3eca09b2ce370c12	3.1039577252658143e-06
113	0x3ec63faef5a91981	2.652259280896952e-06
114	0x3ec6b2f37cbe3270	2.705934980035047e-06
115	0x3ec4a4c77a368cb7	2.460917089401595e-06
116	0x3ec4022222ff5ff4	2.3851792079025662e-06
117	0x3ec37bed785dae28	2.3226847955437695e-06
118	0x3ec122b21b2f41c1	2.0427143794037553e-06
119	0x3ec31bf87fdae78c	2.2780013740593263e-06
120	0x3ebea71ff055465f	1.8270511089223796e-06
121	0x3ec21e7899ff37b1	2.1599564234758157e-06
122	0x3ebe69b160c7ea60	1.8127478852424873e-06
123	0x3ec2883489be5f28	2.2091927131643236e-06
124	0x3ebeffbce8449c25	1.8476829675791165e-06
125	0x3ec17491e37492f3	2.0808400013220824e-06
126	0x3ebfa2201fed546f	1.88549176956723e-06
127	0x3ec031444c5cf5b3	1.9302902697626512e-06
128	0x3ee5892a0368c9a6	1.026906839482896e-05
129	0x3ee5969b7429783c	1.0294108169602819e-05
130	0x3ee5099db9c8517d	1.0031491734210175e-05
131	0x3ee58876849f812f	1.0267762394933724e-05
132	0x3ee3b998b158675e	9.405606344481818e-06
133	0x3ee5c702f53f73ee	1.0384268229241306e-05
134	0x3ee2403194f3b4b8	8.702638892599916e-06
135	0x3ee49ef3185192b6	9.832809846518696e-06
136	0x3ee08e4deff41699	7.894457211064884e-06
137	0x3ee3430c0f872313	9.184790983678083e-06
138	0x3edf548d04d56040	7.469720072116103e-06
139	0x3ee1765d87d2b8ce	8.3267043414461e-06
140	0x3ee00765f0fb87fc	7.643174768149484e-06
141	0x3ee11121229e08df	8.138137747474811e-06
142	0x3ee29ee2e38228f7	8.879017613834252e-06
143	0x3ee1fccee6604659	8.577123662009666e-06
144	0x3ee5aae38c1eab98	1.0331885622457714e-05
145	0x3ee3c4452db01e3b	9.425487794713981e-06
146	0x3ee8f0a137a2cdd8	1.1892299643135215e-05
147	0x3ee62e5e196cad46	1.0576783819957397e-05
148	0x3eea2083a0cba435	1.2458328478586348e-05
149	0x3ee55d45324ef24b	1.0187309792069772e-05
150	0x3ee6b45c94aa8856	1.082636722077674e-05
151	0x3ee4aaa9e9c0c9b8	9.85462911993062e-06
152	0x3ee43eed342b6f98	9.653953048020626e-06
153	0x3ee68972dee21ff5	1.0746435659805801e-05
154	0x3ee5e6041b1e6328	1.0442018581179028e-05
155	0x3eeb8b6374a83e09	1.3134234582628226e-05
156	0x3eecb753625e8894	1.3692911192301594e-05
157	0x3ef20862f379c7a2	1.719737994538391e-05
158	0x3ef0091e5862c5f7	1.5292758256795946e-05
159	0x3ef2a427aa487b35	1.7777662508429443e-05
160	0x3eed7fb6b8bdb816	1.4066162996786323e-05
161	0x3eec668a0d03e3d2	1.3542434686973906e-05
162	0x3ee176cd6515e786	8.327518261397814e-06
163	0x3ed17e9bdbdbe9eb	4.17102950022806e-06
164	0x3e91c20baec1760c	2.6461468283730083e-07
165	0x3e3dbbd5243f1341	6.9229214062270164e-09
166	0x3e62f0a8bc7d846d	3.5278638287372866e-08
167	0x3e750c3401c71410	7.840867550293892e-08
168	0x3e89787deae49aac	1.897712897460591e-07
169	0x3e96a973547c189e	3.376888639692327e-07
170	0x3eab319d9027b779	8.104387066423572e-07
171	0x3eb9278b6c3a4437	1.4993233187525e-06
172	0x3ed16395561cf876	4.145860062197446e-06
173	0x3eec6e8d50d04f49	1.3557359602990283e-05
174	0x3f17aa5445c7720c	9.027613982177262e-05
175	0x3f0eccb0e31ee457	5.874552552093879e-05
176	0x3ef1b617fb92c9a7	1.6890815207568123e-05
177	0x3ef46eac0eebf51b	1.948577203857603e-05
178	0x3ef2a8b8a8d78d45	1.779467361541261e-05
179	0x3ef4882e79fc2622	1.9580802130858323e-05
180	0x3ef03f24476d349b	1.549401028038255e-05
181	0x3ef2770a392b2ac0	1.7609596009641624e-05
182	0x3eecf792791da0c4	1.3812579513675426e-05
183	0x3eee61281412191d	1.4486082934317201e-05
184	0x3ee9a768f11745d5	1.223275424680734e-05
185	0x3ee85a87ecb740a3	1.161271884245224e-05
186	0x3ee65bd06fa3e325	1.0661434761237408e-05
187	0x3ee4d4af98e6463e	9.93290157394737e-06
188	0x3ee4e32b7c5a72c6	9.959880013449089e-06
189	0x3ee348394c529452	9.194433355406082e-06
190	0x3ee4e35fe1bd18dd	9.960261244789894e-06
191	0x3ee29555b2a2cc37	8.861226508427324e-06
192	0x3ee51ec9d99792da	1.0070928328562005e-05
193	0x3ee1905a7d7a1a2c	8.37511099339741e-06
194	0x3ee539e0b5c6194b	1.0121386076600159e-05
195	0x3ee2fabde85e14b5	9.050111895234734e-06
196	0x3ee5e00736ae8737	1.0430865321545489e-05
197	0x3ee43ba673d3f61c	9.647850328860104e-06
198	0x3ee4a829ce431dd0	9.849971725719048e-06
199	0x3ee610e9ec0cdf82	1.0521921809933174e-05
200	0x3ee5560f610d1622	1.0173879702822403e-05
201	0x3ee7f7c0142145bf	1.1428725546522017e-05
202	0x3ee4504a93632502	9.68629738586297e-06
203	0x3ee7884b9d7574ec	1.1221124551037046e-05
204	0x3ee34820f8e72a81	9.194256361496182e-06
205	0x3ee580b5d82f5103	1.0253321994037773e-05
206	0x3ee24c90eba4f289	8.725684314308802e-06
207	0x3ee391b864fce2b2	9.33133119894575e-06
208	0x3ee0ada9dac0afe0	7.952867996228964e-06
209	0x3edf458a77b6f082	7.455740952119177e-06
210	0x3eddc8f5cf338eb5	7.101297558185085e-06
211	0x3ed9f8d7808ea151	6.192216468394193e-06
212	0x3edb2a3c57156eb1	6.47663670013856e-06
213	0x3ed85e59d98ac23b	5.809917092023315e-06
214	0x3ed9f1fde206811a	6.185836838673814e-06
215	0x3ed54c53c336782b	5.077875403184906e-06
216	0x3eda4dbd53874907	6.271283659891339e-06
217	0x3ed64101d02105ba	5.305751303254079e-06
218	0x3ed8c2858b34b7a9	5.903208307329456e-06
219	0x3ed806d8aaba68f9	5.728422063500663e-06
220	0x3ed7d791ecaf7dfd	5.684392543308777e-06
221	0x3ed88aedf4e42ac6	5.851434094826085e-06
222	0x3ed68501f2d76893	5.369081731621455e-06
223	0x3ed89792d6230405	5.863209795176944e-06
224	0x3ed51ca771643431	5.033476347071845e-06
225	0x3ed7a5b089195f77	5.637937776713115e-06
226	0x3ed2d52571d90156	4.490042355309877e-06
227	0x3ed503c660c5db2d	5.010305823885739e-06
228	0x3ed124407fbb04f5	4.086878103216583e-06
229	0x3ed24dac822b9aca	4.363873844259994e-06
230	0x3ed01d6b575340dd	3.8420961249870584e-06
231	0x3ed00a0fd9273876	3.824068146985912e-06
232	0x3ecf3a0b5497588c	3.722516940678097e-06
233	0x3ecdecf6e00dacd8	3.5674145241658453e-06
234	0x3ecfcc9df69347a6	3.790770212044322e-06
235	0x3ecc0db356ee5c7e	3.344239920942718e-06
236	0x3ed049fd10616e8d	3.883604454992353e-06
237	0x3ecb881dd5b92a2b	3.2820350222330296e-06
238	0x3ed0517fea514182	3.890599747327966e-06
239	0x3ecb14421bd1334e	3.228084294570899e-06
240	0x3ecec654bccde001	3.6686337580547905e-06
241	0x3eca14795420b8b4	3.1089754495483983e-06
242	0x3ecb0f5f54fa57c7	3.2258091449783555e-06
243	0x3ec7e64f70dd8d5f	2.8490602578688026e-06
244	0x3ec75585cdf37e04	2.781638258050674e-06
245	0x3ec6598f7713fc23	2.6643091862728316e-06
246	0x3ec4cb9323589370	2.4789826749298507e-06
247	0x3ec58767f7c73e5f	2.5664484708321954e-06
248	0x3ec29f338c67a37b	2.219901122691953e-06
249	0x3ec5be50ae2bfe61	2.59201748187259e-06
250	0x3ec1fbff29bf9302	2.1439030444152032e-06
251	0x3ec507ab38d32d0d	2.5069661605308097e-06
252	0x3ec2e337bb83d0a2	2.2515737009236306e-06
253	0x3ec428065739175a	2.4028237762011355e-06
254	0x3ec298a45806a0ef	2.2168466673086098e-06
255	0x3ec2b0bd7287691e	2.228068201254613e-06

error f8 [256, 128, 1]
0	0x3e939e0176b251bc	2.9231920590483155e-07
1	0x3e9320ff88d288ce	2.8504280964227744e-07
2	0x3e9372d5a54fbb07	2.898063134461704e-07
3	0x3e947df42d151b90	3.053547007092055e-07
4	0x3e93e72dc4c4da89	2.9657843893545495e-07
5	0x3e9438db8cef6286	3.013327728985412e-07
6	0x3e91f8a70e231137	2.677932241619109e-07
7	0x3e92deb7d2170c7f	2.8118479819208846e-07
8	0x3e8feb86236ef97e	2.3782264843385834e-07
9	0x3e914fb516eb8980	2.5795932049993805e-07
10	0x3e8bd152cec27614	2.072577908228076e-07
11	0x3e8bbf4dc1c425c7	2.0673334767016335e-07
12	0x3e88d1ee7c83fd77	1.849237476550353e-07
13	0x3e8957666b8cf467	1.8880819199234202e-07
14	0x3e8a9083fb7f77e1	1.979210517690446e-07
15	0x3e8af98dc5d27704	2.0097806699853772e-07
16	0x3e8d23305118e08e	2.1709096435936834e-07
17	0x3e8db7a48a8930e3	2.2141154444805897e-07
18	0x3e9134ffba1339d3	2.564046842180377e-07
19	0x3e8fbc2af1720bab	2.3644440070102603e-07
20	0x3e91b87e1758426e	2.640586197209093e-07
21	0x3e90a270bc4efbaf	2.478738532727646e-07
22	0x3e91572aa91be504	2.583935066881822e-07
23	0x3e8ec4561f183d25	2.292315595540919e-07
24	0x3e8ef931b29f018a	2.307699216702007e-07
25	0x3e8f7b4e323cf4a7	2.3455665953436093e-07
26	0x3e90dcec13747229	2.512779419693229e-07
27	0x3e9415b47be39988	2.9928662205330654e-07
28	0x3e952ebdd5bf0fbf	3.156451009423602e-07
29	0x3e9a5d5a9038f903	3.928640952311376e-07
30	0x3e98df0e4058df18	3.7061141741925686e-07
31	0x3e9cdce92fa628e7	4.3009121921594373e-07
32	0x3e97418174023665	3.465396396583764e-07
33	0x3e9653f37fe4ab00	3.3271214751560963e-07
34	0x3e8d765ad43edec1	2.1951141537605532e-07
35	0x3e7d6be918b9a1d7	1.096037235915061e-07
36	0x3e490e8b354c5a27	1.1667987168069455e-08
37	0x3dec60c02b8be0c0	2.064766324697673e-10
38	0x3e10004d119ee97c	9.313910254880535e-10
39	0x3e22ee8ef542da2c	2.20395960690804e-09
40	0x3e3724400a911174	5.38807413362031e-09
41	0x3e42be1abca7d351	8.727701135568205e-09
42	0x3e56790ea6e19705	2.0929500292932758e-08
43	0x3e6620c165f0698f	4.121652063416977e-08
44	0x3e7dbcff0ef59812	1.1078367711178131e-07
45	0x3e9a091220633253	3.8795818148028495e-07
46	0x3eca4018078a45e9	3.1292875600295335e-06
47	0x3ec402fffb340c3a	2.385582740795027e-06
48	0x3e9aa3e5a9c11329	3.969702591126266e-07
49	0x3e9f5d20ff841479	4.6735681237558547e-07
50	0x3e9d49be3387239b	4.3642608063255665e-07
51	0x3e9f06a9bd0886ce	4.623238370212119e-07
52	0x3e9a2d5a628fe0fb	3.900700869526001e-07
53	0x3e9a8ea654f102c1	3.957334983630363e-07
54	0x3e96841523b274c8	3.3551376405779937e-07
55	0x3e95be13975394d2	3.2398829514911537e-07
56	0x3e921701ddcd4a4a	2.695601020636172e-07
57	0x3e915c2ed59cf669	2.5868549401509615e-07
58	0x3e8f8d7c1588cbb6	2.350857453300918e-07
59	0x3e8dc69c2f320b4f	2.2184715184691453e-07
60	0x3e8d8cfe8e4f85af	2.2017031323013185e-07
61	0x3e8bcca868ee468b	2.071220035174743e-07
62	0x3e8eefa389d437f7	2.3049182554978518e-07
63	0x3e8d5a06d1a21a52	2.186869572687718e-07
64	0x3e91bf677578a476	2.644609273538907e-07
65	0x3e90263f93423709	2.4064492554978425e-07
66	0x3e92c4dcfe51f823	2.796798511186016e-07
67	0x3e919b887789c4bb	2.6237295672807026e-07
68	0x3e93d7c326267673	2.956810815304366e-07
69	0x3e928e2cfe998fa9	2.7649661991078063e-07
70	0x3e937cc6b05ef2eb	2.903849892729352e-07
71	0x3e940a31007bd7c3	2.986164422258506e-07
72	0x3e933becc5d90847	2.866101505885355e-07
73	0x3e944417bdd092a5	3.019867430029578e-07
74	0x3e9218cb9def9062	2.6966418248246247e-07
75	0x3e93ae0048438b1b	2.932502598652332e-07
76	0x3e9099e0085c3c95	2.473752903500598e-07
77	0x3e91c050ef938d88	2.6451401387140047e-07
78	0x3e8e43d54f0647a0	2.2549162493869197e-07
79	0x3e8cf7988649ef7d	2.1582224287222587e-07
80	0x3e895579eca79009	1.8875220171501075e-07
81	0x3e884e5f0b3226ff	1.810948383233624e-07
82	0x3e85ae7998635ebc	1.6154008281617584e-07
83	0x3e8392686ba9957f	1.4582206183108565e-07
84	0x3e82d6473f4d7ae6	1.4034677033987487e-07
85	0x3e8023b6df3ebdfc	1.202487137619663e-07
86	0x3e81832cf5ac3bb5	1.3047758325903039e-07
87	0x3e7e0797a10da46c	1.1186919147771815e-07
88	0x3e818079a21988a7	1.3039898854027738e-07
89	0x3e80e4e0a2e2429d	1.2587050108151707e-07
90	0x3e8370eed3b054bf	1.4484781182879353e-07
91	0x3e818be19468e012	1.3073094802681109e-07
92	0x3e83b26bf60079e6	1.4675378690125919e-07
93	0x3e824210d047a4d7	1.360332150390149e-07
94	0x3e8148ed8d6b2f35	1.2878235252364382e-07
95	0x3e820b41d42fda0e	1.3443807675402697e-07
96	0x3e8042c306e8a12d	1.2115231436236466e-07
97	0x3e80b6c6852480a4	1.2452875581496232e-07
98	0x3e7d80c8d6b1bdce	1.0990748016011019e-07
99	0x3e7e2c223f7172ca	1.1240093998735774e-07
100	0x3e7a33c91a4a58b5	9.761112680149255e-08
101	0x3e7ab262f5f94e90	9.945341394287488e-08
102	0x3e76b9438da74f5e	8.465233084588126e-08
103	0x3e7656cac328f151	8.321937698062158e-08
104	0x3e750435f964877f	7.829237200611516e-08
105	0x3e741e7c475d81ed	7.494942785629982e-08
106	0x3e7492cf3e1e3bb7	7.664216597327271e-08
107	0x3e73fbbe5825c332	7.444386621535897e-08
108	0x3e74a28cb4dd3868	7.687121447478117e-08
109	0x3e73213a2aaeca07	7.126403526908524e-08
110	0x3e7588e8b1cb0c8e	8.022338388994584e-08
111	0x3e73906b28d4e9fa	7.288208277593693e-08
112	0x3e74da5ffaa9319f	7.768357927171752e-08
113	0x3e734592520f3145	7.179291518152232e-08
114	0x3e72ef528dfb6087	7.053782579856485e-08
115	0x3e71412351b6d51a	6.427781722755136e-08
116	0x3e70e5fcd4fabf68	6.295140519518475e-08
117	0x3e6fe784df4f7561	5.942652229311394e-08
118	0x3e6d3ff3b00ac0c0	5.448202067737147e-08
119	0x3e6dd04e997be9da	5.553234244493466e-08
120	0x3e69c3e8fed8e26e	4.799156259585103e-08
121	0x3e6b1917b05cbdfb	5.047399124905304e-08
122	0x3e6888eb386dadb2	4.5699699183602464e-08
123	0x3e6b223003334be8	5.054016618548396e-08
124	0x3e68b9f68e46ebdd	4.605654327661096e-08
125	0x3e6a311dbd0660ac	4.878614101865437e-08
126	0x3e69436104c18900	4.705637532476067e-08
127	0x3e6985c533440bdb	4.753943586186592e-08
128	0x3e9439eb4136f2ce	3.0139455128498796e-07
129	0x3e9441e08202fbf3	3.018577690131758e-07
130	0x3e952d4e8e1bd238	3.1556159117645105e-07
131	0x3e94865504902d3a	3.058423812546974e-07
132	0x3e94b400fa6097c3	3.0850082522110585e-07
133	0x3e94f3734b9302f5	3.1219390057503193e-07
134	0x3e92d6c805dfaf92	2.807228208767867e-07
135	0x3e93a99e2c327d69	2.9299512167322393e-07
136	0x3e8f2b8aaaf5057d	2.3223522791809392e-07
137	0x3e91472dc2788cad	2.5746288876051486e-07
138	0x3e8bb62c824a9c17	2.0646763334195317e-07
139	0x3e8e1b0e7d0147e8	2.2430486845914797e-07
140	0x3e8a8ba5222e480e	1.9777930146104826e-07
141	0x3e8c621aae3e6e93	2.114714653362325e-07
142	0x3e8d57e42680bf16	2.186248082582568e-07
143	0x3e8dc80b88239e04	2.218889144152713e-07
144	0x3e9131bcf886cd25	2.562148826670876e-07
145	0x3e913236a59f62b6	2.5624254862197656e-07
146	0x3e93cec150ecad8d	2.951567958260554e-07
147	0x3e937ce34e648a2c	2.9039149608743505e-07
148	0x3e953c3791e7ba38	3.1642947986759504e-07
149	0x3e929bf05a499803	2.772977388043392e-07
150	0x3e9360433fcfc062	2.8872528884307627e-07
151	0x3e91b77e2a3ede51	2.6400042884729283e-07
152	0x3e91ca87600518c7	2.6510846852892673e-07
153	0x3e92ea2f7de8fd08	2.818522925363984e-07
154	0x3e938302de2213b4	2.90747918303958e-07
155	0x3e977fdf41a86f85	3.5016984304010604e-07
156	0x3e99d5f2c03e0da8	3.849824567957646e-07
157	0x3e9efdd45557c26a	4.6180965304537327e-07
158	0x3e9dda96a0f34d23	4.4485719370470257e-07
159	0x3ea016fa98318866	4.795122524709817e-07
160	0x3e9b72f19f474384	4.090219641014183e-07
161	0x3e9a0701754390e2	3.8783797619140036e-07
162	0x3e9026b9944022c2	2.4067266601915304e-07
163	0x3e814d9c2c455cee	1.2891861989980901e-07
164	0x3e4e63c3a55fdce3	1.4151308718581396e-08
165	0x3df06562a1d1a769	2.385937296856689e-10
166	0x3e134559b9fb929b	1.1217140340979487e-09
167	0x3e252410ad4992e2	2.4611222871298404e-09
168	0x3e38cfdd6ba967a0	5.776987494789629e-09
169	0x3e4768d4ed72ddc3	1.0900897447171829e-08
170	0x3e5a93294836c49e	2.474975647836706e-08
171	0x3e69c4eebd50ce61	4.799900180825757e-08
172	0x3e81a51871ea260d	1.314647812454353e-07
173	0x3ea19d83c371f394	5.249766052008961e-07
174	0x3ecf4574e01cf4a5	3.7278312000886727e-06
175	0x3ec4173aa4ad90d4	2.395002672116612e-06
176	0x3ea01d38d7422370	4.802390507634038e-07
177	0x3ea206f81ce0864f	5.372531235484413e-07
178	0x3ea13043c3b17999	5.122582317320864e-07
179	0x3ea1c414f832ae34	5.294664195040799e-07
180	0x3e9e15b4b8832bd0	4.4829828783611283e-07
181	0x3e9ebfd70795ce65	4.5820139112711596e-07
182	0x3e99a23feacc5ddf	3.8197320399851563e-07
183	0x3e98fb3e42fbb932	3.722521482026183e-07
184	0x3e95d9160313ad3b	3.255604524426854e-07
185	0x3e942c2ad8d9957d	3.005941032529489e-07
186	0x3e91e95049015ff1	2.6690038002407785e-07
187	0x3e9125adb69d70b5	2.5551292158976315e-07
188	0x3e9081f15d226161	2.4598224713505557e-07
189	0x3e904ab32a926c32	2.4276668370856263e-07
190	0x3e90ea86644c89b8	2.5206972891120964e-07
191	0x3e906fb13d6834ab	2.449199291439307e-07
192	0x3e921249faf4661e	2.692854605565415e-07
193	0x3e90d2e8c365e414	2.506951121343905e-07
194	0x3e9369b48c1989de	2.892749187741827e-07
195	0x3e92c2a0120dbef6	2.795495835294438e-07
196	0x3e9522b7e7fb3217	3.1494526096518976e-07
197	0x3e938591a96b6708	2.90896801242316e-07
198	0x3e94d40c604bd8c5	3.103660620029881e-07
199	0x3e9533321cbde97e	3.159043699890454e-07
200	0x3e956e690876a619	3.193511095242769e-07
201	0x3e96616ac2c03126	3.334959639562651e-07
202	0x3e93c86713cd5b2f	2.9478703194223197e-07
203	0x3e94c874dbb7d636	3.0969132655488383e-07
204	0x3e9210bafdc4099b	2.691947409567877e-07
205	0x3e92ac3d76b2dd04	2.7824659438618665e-07
206	0x3e8fbcc387e9cad9	2.3646174792146877e-07
207	0x3e906b81eab3f6fb	2.446763384815641e-07
208	0x3e8b9e44746c91d2	2.0577186373675895e-07
209	0x3e89efd72976163d	1.9324479148487087e-07
210	0x3e879dc67627eeb8	1.7595521757662272e-07
211	0x3e855bde177d25aa	1.5913589001608484e-07
212	0x3e84638227a897f2	1.5190768805453936e-07
213	0x3e830f13ad4571b4	1.4199982579622016e-07
214	0x3e8282bf53055a84	1.379156997587005e-07
215	0x3e80dba7ecf0031d	1.256021193441137e-07
216	0x3e82cffa26f97c27	1.401633826667806e-07
217	0x3e818ccbd4a88f8b	1.30757579279024e-07
218	0x3e837866c441ab74	1.4506517420921235e-07
219	0x3e8367b2838e1422	1.445790205578644e-07
220	0x3e83b8544fee7407	1.4692572133665835e-07
221	0x3e83f7194be6d8f5	1.487525533424563e-07
222	0x3e833c1d294175f4	1.433105764084646e-07
223	0x3e83e43eb77d24a1	1.482038347550408e-07
224	0x3e81f13b34b32827	1.3368062421462997e-07
225	0x3e82aac1bf67ff4b	1.3908012848339944e-07
226	0x3e7ff8cbdb06709f	1.1910446207633728e-07
227	0x3e801c4287f47d50	1.2003176051102443e-07
228	0x3e7c676bfe245f64	1.0581311430215136e-07
229	0x3e7c56062e31c981	1.0555994438432158e-07
230	0x3e796085388f9fea	9.453681405725197e-08
231	0x3e789f56c8363fcb	9.172565467439295e-08
232	0x3e7706dd19dd68cf	8.578155649471964e-08
233	0x3e761b7bc6ae3a7a	8.235632413379874e-08
234	0x3e7620d86cba4ba9	8.243435017434674e-08
235	0x3e75079af92d6c67	7.834176888930851e-08
236	0x3e76fa34f471cc52	8.559737550862233e-08
237	0x3e7576c2a12c9971	7.995928567577167e-08
238	0x3e770deadb5695f5	8.588420182547588e-08
239	0x3e75142ec9cf7ce2	7.852479418046772e-08
240	0x3e76a4f4f05fb6e3	8.43568238315405e-08
241	0x3e7401f8d9a3b07d	7.453450337800133e-08
242	0x3e74b0d98f44f04a	7.707930988349688e-08
243	0x3e72a9087162ae71	6.951497896989217e-08
244	0x3e7238da284a1353	6.788253343644909e-08
245	0x3e70f6585ff744ae	6.318943945113713e-08
246	0x3e702ce6c78e3bd9	6.025804734202127e-08
247	0x3e6f478d9809c8c8	5.826261695742962e-08
248	0x3e6cbbc9acdfa6cb	5.3520400208744024e-08
249	0x3e6e0df8a905e89d	5.598100927518342e-08
250	0x3e6ac77b79dff35d	4.988019884630903e-08
251	0x3e6ccbb9698664c5	5.363635330601636e-08
252	0x3e6b339af82603af	5.06668973608286e-08
253	0x3e6c83e44c32acaf	5.3113703235346526e-08
254	0x3e6a88afd0333876	4.9423301029536435e-08
255	0x3e6afb1f4c3d4a4e	5.025592877843266e-08

xEdges f8 [2]
0	0xc08f400000000000	-1000.0
1	0x408f400000000000	1000.0

yEdges f8 [257]
0	0xbfd3f185f7b5476b	-0.3116164130234355
1	0xbfd3ca913a60e992	-0.30923872662574425
2	0xbfd3a39c7d0c8bb8	-0.30686104022805294
3	0xbfd37ca7bfb82ddf	-0.3044833538303617
4	0xbfd355b30263d005	-0.30210566743267037
5	0xbfd32ebe450f722c	-0.2997279810349791
6	0xbfd307c987bb1453	-0.29735029463728785
7	0xbfd2e0d4ca66b679	-0.29497260823959653
8	0xbfd2b9e00d1258a0	-0.2925949218419053
9	0xbfd292eb4fbdfac6	-0.29021723544421396
10	0xbfd26bf692699ced	-0.2878395490465227
11	0xbfd24501d5153f14	-0.28546186264883144
12	0xbfd21e0d17c0e13a	-0.28308417625114013
13	0xbfd1f7185a6c8361	-0.28070648985344887
14	0xbfd1d0239d182588	-0.2783288034557576
15	0xbfd1a92edfc3c7ae	-0.2759511170580663
16	0xbfd1823a226f69d5	-0.27357343066037504
17	0xbfd15b45651b0bfb	-0.2711957442626837
18	0xbfd13450a7c6ae22	-0.26881805786499247
19	0xbfd10d5bea725049	-0.2664403714673012
20	0xbfd0e6672d1df26f	-0.2640626850696099
21	0xbfd0bf726fc99496	-0.26168499867191863
22	0xbfd0987db27536bc	-0.2593073122742273
23	0xbfd07188f520d8e3	-0.25692962587653606
24	0xbfd04a9437cc7b0a	-0.2545519394788448
25	0xbfd0239f7a781d30	-0.2521742530811535
26	0xbfcff9557a477eae	-0.24979656668346223
27	0xbfcfab6bff9ec2fb	-0.24741888028577094
28	0xbfcf5d8284f60748	-0.24504119388807966
29	0xbfcf0f990a4d4b96	-0.2426635074903884
30	0xbfcec1af8fa48fe2	-0.24028582109269708
31	0xbfce73c614fbd430	-0.23790813469500582
32	0xbfce25dc9a53187d	-0.23553044829731454
33	0xbfcdd7f31faa5cca	-0.23315276189962325
34	0xbfcd8a09a501a118	-0.230775075501932
35	0xbfcd3c202a58e564	-0.22839738910424068
36	0xbfccee36afb029b2	-0.22601970270654942
37	0xbfcca04d35076dff	-0.22364201630885813
38	0xbfcc5263ba5eb24c	-0.22126432991116685
39	0xbfcc047a3fb5f69a	-0.2188866435134756
40	0xbfcbb690c50d3ae7	-0.2165089571157843
41	0xbfcb68a74a647f34	-0.21413127071809301
42	0xbfcb1abdcfbbc381	-0.21175358432040173
43	0xbfcaccd4551307ce	-0.20937589792271044
44	0xbfca7eeada6a4c1c	-0.20699821152501918
45	0xbfca31015fc19069	-0.2046205251273279
46	0xbfc9e317e518d4b6	-0.2022428387296366
47	0xbfc9952e6a701904	-0.19986515233194535
48	0xbfc94744efc75d50	-0.19748746593425404
49	0xbfc8f95b751ea19e	-0.19510977953656278
50	0xbfc8ab71fa75e5eb	-0.1927320931388715
51	0xbfc85d887fcd2a38	-0.1903544067411802
52	0xbfc80f9f05246e86	-0.18797672034348895
53	0xbfc7c1b58a7bb2d3	-0.18559903394579766
54	0xbfc773cc0fd2f720	-0.18322134754810637
55	0xbfc725e2952a3b6d	-0.18084366115041509
56	0xbfc6d7f91a817fba	-0.1784659747527238
57	0xbfc68a0f9fd8c407	-0.1760882883550325
58	0xbfc63c2625300855	-0.17371060195734125
59	0xbfc5ee3caa874ca2	-0.17133291555964997
60	0xbfc5a0532fde90ef	-0.16895522916195868
61	0xbfc55269b535d53c	-0.1665775427642674
62	0xbfc504803a8d198a	-0.16419985636657614
63	0xbfc4b696bfe45dd7	-0.16182216996888485
64	0xbfc468ad453ba224	-0.15944448357119356
65	0xbfc41ac3ca92e671	-0.15706679717350228
66	0xbfc3ccda4fea2abe	-0.154689110775811
67	0xbfc37ef0d5416f0c	-0.15231142437811973
68	0xbfc331075a98b359	-0.14993373798042844
69	0xbfc2e31ddfeff7a6	-0.14755605158273716
70	0xbfc2953465473bf3	-0.14517836518504587
71	0xbfc2474aea9e8041	-0.1428006787873546
72	0xbfc1f9616ff5c48e	-0.14042299238966333
73	0xbfc1ab77f54d08db	-0.13804530599197204
74	0xbfc15d8e7aa44d28	-0.13566761959428075
75	0xbfc10fa4fffb9175	-0.13328993319658947
76	0xbfc0c1bb8552d5c3	-0.1309122467988982
77	0xbfc073d20aaa1a10	-0.12853456040120692
78	0xbfc025e890015e5d	-0.12615687400351563
79	0xbfbfaffe2ab14554	-0.12377918760582435
80	0xbfbf142b355fcdf0	-0.12140150120813309
81	0xbfbe7858400e568a	-0.1190238148104418
82	0xbfbddc854abcdf24	-0.11664612841275052
83	0xbfbd40b2556b67be	-0.11426844201505923
84	0xbfbca4df6019f058	-0.11189075561736794
85	0xbfbc090c6ac878f4	-0.10951306921967668
86	0xbfbb6d397577018e	-0.1071353828219854
87	0xbfbad16680258a28	-0.10475769642429411
88	0xbfba35938ad412c2	-0.10238001002660282
89	0xbfb999c095829b5c	-0.10000232362891154
90	0xbfb8fdeda03123f8	-0.09762463723122028
91	0xbfb8621aaadfac92	-0.09524695083352899
92	0xbfb7c647b58e352c	-0.0928692644358377
93	0xbfb72a74c03cbdc6	-0.09049157803814642
94	0xbfb68ea1caeb4662	-0.08811389164045516
95	0xbfb5f2ced599cefc	-0.08573620524276387
96	0xbfb556fbe0485796	-0.08335851884507259
97	0xbfb4bb28eaf6e030	-0.0809808324473813
98	0xbfb41f55f5a568ca	-0.07860314604969001
99	0xbfb383830053f166	-0.07622545965199876
100	0xbfb2e7b00b027a00	-0.07384777325430747
101	0xbfb24bdd15b1029a	-0.07147008685661618
102	0xbfb1b00a205f8b34	-0.0690924004589249
103	0xbfb114372b0e13d0	-0.06671471406123364
104	0xbfb0786435bc9c6a	-0.06433702766354235
105	0xbfafb92280d64a08	-0.061959341265851064
106	0xbfae817c96335b40	-0.059581654868159806
107	0xbfad49d6ab906c70	-0.05720396847046849
108	0xbfac1230c0ed7da8	-0.05482628207277723
109	0xbfaada8ad64a8ed8	-0.05244859567508592
110	0xbfa9a2e4eba7a010	-0.05007090927739466
111	0xbfa86b3f0104b148	-0.0476932228797034
112	0xbfa733991661c278	-0.045315536482012087
113	0xbfa5fbf32bbed3b0	-0.04293785008432083
114	0xbfa4c44d411be4e0	-0.04056016368662951
115	0xbfa38ca75678f618	-0.038182477288938255
116	0xbfa255016bd60750	-0.035804790891246996
117	0xbfa11d5b81331880	-0.03342710449355568
118	0xbf9fcb6b2d205370	-0.031049418095864423
119	0xbf9d5c1f57da75e0	-0.028671731698173164
120	0xbf9aecd382949840	-0.02629404530048185
121	0xbf987d87ad4ebab0	-0.02391635890279059
122	0xbf960e3bd808dd10	-0.021538672505099277
123	0xbf939ef002c2ff80	-0.019160986107408018
124	0xbf912fa42d7d21f0	-0.01678329970971676
125	0xbf8d80b0b06e88a0	-0.014405613312025445
126	0xbf88a21905e2cd80	-0.012027926914334186
127	0xbf83c3815b571240	-0.009650240516642872
128	0xbf7dc9d36196ae40	-0.007272554118951613
129	0xbf740ca40c7f3800	-0.004894867721260354
130	0xbf649ee96ecf8300	-0.00251718132356904
131	0xbf2248ac4a096800	-0.00013949492587778112
132	0x3f6255d3e58e5680	0.002238191471813533
133	0x3f72e81947dea180	0.004615877869504792
134	0x3f7ca5489cf617c0	0.006993564267196051
135	0x3f83313bf906c720	0.009371250664887365
136	0x3f880fd3a3928240	0.011748937062578624
137	0x3f8cee6b4e1e3d80	0.014126623460269938
138	0x3f90e6817c54fc50	0.016504309857961197
139	0x3f9355cd519ad9e0	0.018881996255652456
140	0x3f95c51926e0b780	0.02125968265334377
141	0x3f983464fc269510	0.02363736905103503
142	0x3f9aa3b0d16c72a0	0.026015055448726288
143	0x3f9d12fca6b25040	0.028392741846417602
144	0x3f9f82487bf82dd0	0.03077042824410886
145	0x3fa0f8ca289f05b8	0.033148114641800175
146	0x3fa230701341f480	0.035525801039491434
147	0x3fa36815fde4e348	0.03790348743718269
148	0x3fa49fbbe887d218	0.04028117383487401
149	0x3fa5d761d32ac0e0	0.042658860232565265
150	0x3fa70f07bdcdafb0	0.04503654663025658
151	0x3fa846ada8709e78	0.04741423302794784
152	0x3fa97e5393138d40	0.0497919194256391
153	0x3faab5f97db67c10	0.05216960582333041
154	0x3fabed9f68596ad8	0.05454729222102167
155	0x3fad254552fc59a8	0.056924978618712985
156	0x3fae5ceb3d9f4870	0.059302665016404243
157	0x3faf949128423738	0.0616803514140955
158	0x3fb0661b89729304	0.06405803781178682
159	0x3fb101ee7ec40a68	0.06643572420947808
160	0x3fb19dc1741581cc	0.06881341060716933
161	0x3fb239946966f934	0.07119109700486065
162	0x3fb2d5675eb87098	0.07356878340255191
163	0x3fb3713a5409e800	0.07594646980024322
164	0x3fb40d0d495b5f64	0.07832415619793448
165	0x3fb4a8e03eacd6c8	0.08070184259562574
166	0x3fb544b333fe4e30	0.08307952899331705
167	0x3fb5e086294fc594	0.08545721539100831
168	0x3fb67c591ea13cfc	0.08783490178869963
169	0x3fb7182c13f2b460	0.09021258818639089
170	0x3fb7b3ff09442bc4	0.09259027458408214
171	0x3fb84fd1fe95a32c	0.09496796098177346
172	0x3fb8eba4f3e71a90	0.09734564737946472
173	0x3fb98777e93891f8	0.09972333377715603
174	0x3fba234ade8a095c	0.10210102017484729
175	0x3fbabf1dd3db80c0	0.10447870657253855
176	0x3fbb5af0c92cf828	0.10685639297022986
177	0x3fbbf6c3be7e6f8c	0.10923407936792112
178	0x3fbc9296b3cfe6f4	0.11161176576561244
179	0x3fbd2e69a9215e58	0.1139894521633037
180	0x3fbdca3c9e72d5bc	0.11636713856099495
181	0x3fbe660f93c44d24	0.11874482495868627
182	0x3fbf01e28915c488	0.12112251135637753
183	0x3fbf9db57e673bec	0.12350019775406879
184	0x3fc01cc439dc59aa	0.1258778841517601
185	0x3fc06aadb485155c	0.12825557054945136
186	0x3fc0b8972f2dd110	0.13063325694714267
187	0x3fc10680a9d68cc2	0.13301094334483393
188	0x3fc1546a247f4874	0.1353886297425252
189	0x3fc1a2539f280428	0.1377663161402165
190	0x3fc1f03d19d0bfda	0.14014400253790776
191	0x3fc23e2694797b8e	0.14252168893559908
192	0x3fc28c100f223740	0.14489937533329034
193	0x3fc2d9f989caf2f2	0.1472770617309816
194	0x3fc327e30473aea6	0.1496547481286729
195	0x3fc375cc7f1c6a58	0.15203243452636417
196	0x3fc3c3b5f9c5260c	0.15441012092405548
197	0x3fc4119f746de1be	0.15678780732174674
198	0x3fc45f88ef169d70	0.159165493719438
199	0x3fc4ad7269bf5924	0.16154318011712931
200	0x3fc4fb5be46814d6	0.16392086651482057
201	0x3fc549455f10d08a	0.1662985529125119
202	0x3fc5972ed9b98c3c	0.16867623931020315
203	0x3fc5e518546247ee	0.1710539257078944
204	0x3fc63301cf0b03a2	0.17343161210558572
205	0x3fc680eb49b3bf54	0.17580929850327698
206	0x3fc6ced4c45c7b06	0.17818698490096824
207	0x3fc71cbe3f0536ba	0.18056467129865955
208	0x3fc76aa7b9adf26c	0.1829423576963508
209	0x3fc7b8913456ae20	0.18532004409404212
210	0x3fc8067aaeff69d2	0.18769773049173338
211	0x3fc8546429a82586	0.1900754168894247
212	0x3fc8a24da450e136	0.1924531032871159
213	0x3fc8f0371ef99cea	0.19483078968480722
214	0x3fc93e2099a2589e	0.19720847608249853
215	0x3fc98c0a144b144e	0.19958616248018973
216	0x3fc9d9f38ef3d002	0.20196384887788105
217	0x3fca27dd099c8bb6	0.20434153527557236
218	0x3fca75c68445476a	0.20671922167326368
219	0x3fcac3affeee031a	0.20909690807095488
220	0x3fcb11997996bece	0.2114745944686462
221	0x3fcb5f82f43f7a82	0.2138522808663375
222	0x3fcbad6c6ee83632	0.2162299672640287
223	0x3fcbfb55e990f1e6	0.21860765366172002
224	0x3fcc493f6439ad9a	0.22098534005941134
225	0x3fcc9728dee2694a	0.22336302645710254
226	0x3fcce512598b24fe	0.22574071285479386
227	0x3fcd32fbd433e0b2	0.22811839925248517
228	0x3fcd80e54edc9c66	0.23049608565017649
229	0x3fcdcecec9855816	0.2328737720478677
230	0x3fce1cb8442e13ca	0.235251458445559
231	0x3fce6aa1bed6cf7e	0.23762914484325032
232	0x3fceb88b397f8b2e	0.24000683124094152
233	0x3fcf0674b42846e2	0.24238451763863283
234	0x3fcf545e2ed10296	0.24476220403632415
235	0x3fcfa247a979be46	0.24713989043401535
236	0x3fcff031242279fa	0.24951757683170667
237	0x3fd01f0d4f659ad7	0.251895263229398
238	0x3fd046020cb9f8af	0.2542729496270892
239	0x3fd06cf6ca0e5689	0.2566506360247805
240	0x3fd093eb8762b463	0.2590283224224718
241	0x3fd0bae044b7123d	0.2614060088201631
242	0x3fd0e1d5020b7015	0.26378369521785433
243	0x3fd108c9bf5fcdef	0.26616138161554564
244	0x3fd12fbe7cb42bc9	0.26853906801323696
245	0x3fd156b33a0889a1	0.27091675441092816
246	0x3fd17da7f75ce77b	0.2732944408086195
247	0x3fd1a49cb4b14555	0.2756721272063108
248	0x3fd1cb917205a32d	0.278049813604002
249	0x3fd1f2862f5a0107	0.2804275000016933
250	0x3fd2197aecae5ee1	0.2828051863993846
251	0x3fd2406faa02bcbb	0.28518287279707594
252	0x3fd2676467571a93	0.28756055919476714
253	0x3fd28e5924ab786d	0.28993824559245845
254	0x3fd2b54de1ffd647	0.29231593199014977
255	0x3fd2dc429f54341f	0.29469361838784097

zEdges f8 [129]
0	0xbfc0e543edab19ff	-0.1319966230859819
1	0xbfc0497979f65da1	-0.12724226432031308
2	0xbfbf5b5e0c834285	-0.12248790555464424
3	0xbfbe23c92519c9c9	-0.11773354678897542
4	0xbfbcec343db0510c	-0.11297918802330659
5	0xbfbbb49f5646d850	-0.10822482925763777
6	0xbfba7d0a6edd5f94	-0.10347047049196895
7	0xbfb945758773e6d8	-0.09871611172630013
8	0xbfb80de0a00a6e1b	-0.09396175296063129
9	0xbfb6d64bb8a0f55e	-0.08920739419496246
10	0xbfb59eb6d1377ca2	-0.08445303542929364
11	0xbfb46721e9ce03e6	-0.07969867666362482
12	0xbfb32f8d02648b2a	-0.074944317897956
13	0xbfb1f7f81afb126d	-0.07018995913228716
14	0xbfb0c063339199b1	-0.06543560036661834
15	0xbfaf119c985041e8	-0.06068124160094951
16	0xbfaca272c97d5070	-0.05592688283528069
17	0xbfaa3348faaa5ef8	-0.05117252406961187
18	0xbfa7c41f2bd76d7e	-0.046418165303943035
19	0xbfa554f55d047c06	-0.041663806538274215
20	0xbfa2e5cb8e318a8c	-0.03690944777260538
21	0xbfa076a1bf5e9914	-0.03215508900693656
22	0xbf9c0eefe1174f38	-0.02740073024126774
23	0xbf97309c43716c44	-0.022646371475598906
24	0xbf925248a5cb8954	-0.017892012709930086
25	0xbf8ae7ea104b4cc8	-0.013137653944261266
26	0xbf812b42d4ff86e0	-0.008383295178592431
27	0xbf6dba6e66cf0400	-0.0036289364129236112
28	0x3f52705d0cc02700	0.001125422352745209
29	0x3f781565b9c79580	0.005879781118414029
30	0x3f85c75a182f90b0	0.010634139884082877
31	0x3f8f8401537b5690	0.015388498649751697
32	0x3f94a05447638e38	0.020142857415420518
33	0x3f997ea7e5097128	0.024897216181089338
34	0x3f9e5cfb82af5418	0.029651574946758158
35	0x3fa19da7902a9b88	0.034405933712427006
36	0x3fa40cd15efd8d00	0.039160292478095826
37	0x3fa67bfb2dd07e78	0.043914651243764646
38	0x3fa8eb24fca36ff0	0.04866901000943347
39	0x3fab5a4ecb766168	0.05342336877510229
40	0x3fadc9789a4952e4	0.058177727540771135
41	0x3fb01c51348e222e	0.06293208630643995
42	0x3fb153e61bf79aea	0.06768644507210878
43	0x3fb28b7b036113a6	0.0724408038377776
44	0x3fb3c30feaca8c62	0.07719516260344642
45	0x3fb4faa4d234051e	0.08194952136911524
46	0x3fb63239b99d7ddc	0.08670388013478408
47	0x3fb769cea106f698	0.0914582389004529
48	0x3fb8a16388706f54	0.09621259766612172
49	0x3fb9d8f86fd9e810	0.10096695643179054
50	0x3fbb108d574360cc	0.10572131519745936
51	0x3fbc48223eacd98a	0.11047567396312821
52	0x3fbd7fb726165246	0.11523003272879703
53	0x3fbeb74c0d7fcb02	0.11998439149446585
54	0x3fbfeee0f4e943be	0.12473875026013467
55	0x3fc0933aee295e3d	0.1294931090258035
56	0x3fc12f0561de1a9b	0.1342474677914723
57	0x3fc1cacfd592d6f9	0.13900182655714113
58	0x3fc2669a49479357	0.14375618532280995
59	0x3fc30264bcfc4fb7	0.14851054408847883
60	0x3fc39e2f30b10c15	0.15326490285414765
61	0x3fc439f9a465c873	0.15801926161981647
62	0x3fc4d5c4181a84d1	0.1627736203854853
63	0x3fc5718e8bcf412f	0.1675279791511541
64	0x3fc60d58ff83fd8d	0.17228233791682293
65	0x3fc6a9237338b9eb	0.17703669668249175
66	0x3fc744ede6ed7649	0.18179105544816057
67	0x3fc7e0b85aa232a7	0.1865454142138294
68	0x3fc87c82ce56ef05	0.1912997729794982
69	0x3fc9184d420bab63	0.19605413174516703
70	0x3fc9b417b5c067c3	0.2008084905108359
71	0x3fca4fe229752421	0.20556284927650473
72	0x3fcaebac9d29e07f	0.21031720804217355
73	0x3fcb877710de9cdd	0.21507156680784237
74	0x3fcc23418493593b	0.2198259255735112
75	0x3fccbf0bf8481599	0.22458028433918
76	0x3fcd5ad66bfcd1f7	0.22933464310484883
77	0x3fcdf6a0dfb18e55	0.23408900187051765
78	0x3fce926b53664ab3	0.23884336063618647
79	0x3fcf2e35c71b0711	0.2435977194018553
80	0x3fcfca003acfc371	0.24835207816752417
81	0x3fd032e557423fe8	0.253106436933193
82	0x3fd080ca911c9e16	0.2578607956988618
83	0x3fd0ceafcaf6fc46	0.26261515446453065
84	0x3fd11c9504d15a74	0.2673695132301994
85	0x3fd16a7a3eabb8a4	0.2721238719958683
86	0x3fd1b85f788616d2	0.27687823076153706
87	0x3fd20644b2607502	0.28163258952720593
88	0x3fd25429ec3ad330	0.2863869482928747
89	0x3fd2a20f26153160	0.2911413070585436
90	0x3fd2eff45fef8f8e	0.29589566582421234
91	0x3fd33dd999c9edbe	0.3006500245898812
92	0x3fd38bbed3a44bee	0.3054043833555501
93	0x3fd3d9a40d7eaa1c	0.31015874212121886
94	0x3fd427894759084c	0.31491310088688773
95	0x3fd4756e8133667a	0.3196674596525565
96	0x3fd4c353bb0dc4aa	0.32442181841822537
97	0x3fd51138f4e822d8	0.32917617718389414
98	0x3fd55f1e2ec28108	0.333930535949563
99	0x3fd5ad03689cdf36	0.3386848947152318
100	0x3fd5fae8a2773d66	0.34343925348090065
101	0x3fd648cddc519b94	0.3481936122465694
102	0x3fd696b3162bf9c4	0.3529479710122383
103	0x3fd6e498500657f4	0.35770232977790717
104	0x3fd7327d89e0b622	0.36245668854357593
105	0x3fd78062c3bb1452	0.3672110473092448
106	0x3fd7ce47fd957280	0.3719654060749136
107	0x3fd81c2d376fd0b0	0.37671976484058245
108	0x3fd86a12714a2ede	0.3814741236062512
109	0x3fd8b7f7ab248d0e	0.3862284823719201
110	0x3fd905dce4feeb3c	0.39098284113758885
111	0x3fd953c21ed9496c	0.39573719990325773
112	0x3fd9a1a758b3a79a	0.4004915586689265
113	0x3fd9ef8c928e05ca	0.40524591743459537
114	0x3fda3d71cc6863f8	0.41000027620026414
115	0x3fda8b570642c228	0.414754634965933
116	0x3fdad93c401d2056	0.4195089937316018
117	0x3fdb272179f77e86	0.42426335249727065
118	0x3fdb7506b3d1dcb6	0.4290177112629395
119	0x3fdbc2ebedac3ae4	0.4337720700286083
120	0x3fdc10d127869914	0.43852642879427717
121	0x3fdc5eb66160f742	0.44328078755994593
122	0x3fdcac9b9b3b5572	0.4480351463256148
123	0x3fdcfa80d515b3a0	0.4527895050912836
124	0x3fdd48660ef011d0	0.45754386385695245
125	0x3fdd964b48ca6ffe	0.4622982226226212
126	0x3fdde43082a4ce2e	0.4670525813882901
127	0x3fde3215bc7f2c5c	0.47180694015395885
128	0x3fde7ffaf6598a8c	0.47656129891962773
